checkpoint_actor2.pth (torch_old, 524619 bytes, 6 tensors)

fc1.weight f4 [400, 24]
00000000: 1ddf 8a3e d9f3 8bbe 6b32 80bd f335 6d3d
00000010: 675a 383d ad33 d9bf d7f9 3abd f78c 703d
00000020: 48ac 423e 7096 67be ab6c 02be c142 3cbe
00000030: 77b6 123e 6b38 d9bf 9605 4dbe d058 73be
00000040: 0192 8c3e 5f7c 63be a370 6cbd 5f32 933e
00000050: 1d09 8b3e e201 7bbf 75ef 44bd 3514 923e
00000060: 4bbe 163f ec5c f3be 7d7a 6a3d 17dd 01be
00000070: 4896 32be 2468 11bf 9350 1b3d 18f7 10be
00000080: b252 e53e adb7 aebe fe33 efbd d675 963e
00000090: 157e 37be 2acf 2cbf c88e cdbd c348 973e
000000a0: 0bb1 e23e c792 9bbe 23b3 b8bd 7e1d 213e
000000b0: 76b3 2dbe 5e43 57bf dd33 84bd d758 2c3e
000000c0: 8e61 babd 69e2 2bbe 2df3 05bd f33e a2bd
000000d0: 117a a63d 41f3 b43e 2793 dc3c 0011 b1bd
000000e0: caeb 643d b0a6 95bd 1ef2 fcbb 2b55 98be
000000f0: e54c d13e 5d20 efbb 5291 71bd fe6d bebe
00000100: e5d8 ba3d 6175 31bd 9ce1 083c 3db8 b4be
00000110: 8733 d13e 7043 343c a3e5 1cbd be90 afbe
00000120: 7feb fc3e ae59 1c3f 26b6 8bbc 33ce f1bb
00000130: 9cd3 1cbf fda7 7fbe 7e9a 8b3c c47f 5cbc
00000140: 5cec 1d3f 8642 183f b663 a0bc 7026 d3bd
00000150: 4abf 01bf 06c9 20bf 7775 263d 69a2 00be
00000160: 3a77 223f 66e2 223f 2718 343d a152 b4bc
00000170: e300 d8be a985 79bf defa 0e3c 1fa6 a2bd
00000180: 1bbb 1b3f ccee 6d3f 3d1d 9fbc 290e 9e3c
00000190: e82b 5e3d ff36 61bf 2cb5 21bd 2fec 4bba
000001a0: 2341 af3e c3bb 0c3f 2edb f73b bc95 72be
000001b0: 1022 90bd af82 55be 1156 e7bc 848e 7cbe
000001c0: 43fe ae3e 3817 fe3e dce1 9e3c 61c7 93be
000001d0: 085f 0bbe c252 303d 4f6c d7bc 6670 82be
000001e0: 5399 b3bd b5f3 a7bc 37cb 2a3d 9b11 c0bd
000001f0: 93f0 3abc 290f 9b3c 0303 6fbb 590b 22be
00000200: bdb3 ba3d 8cb0 5e3e 4527 fbbd bbf0 61bd
00000210: 5223 3e3e a10a 07bf 4c78 86bd 91a8 5fbd
00000220: 2d01 fc3d e2e0 b83e a537 17be 860a 1c3f
00000230: 4441 d73e 976e 74bf 8237 f8bd 73c0 2b3f
00000240: 2731 5e3e 13ac 773f f1eb c2bd 81a0 73be
00000250: 1d6e e73b 7b75 8c3e bbdd bfbd 01b9 90be
00000260: 0ae4 8e3e 2d28 8a3f adc2 10bd f3b7 62be
00000270: fb89 30be 4355 473e 9132 55bd c8ac 77be
00000280: c72f af3e e946 863f 7ce5 1bbc 1c63 cabe
00000290: 781f f8be 7338 063f 1291 143d 203c b2be
000002a0: a45f 2f3e 4e40 3bbe f305 1e3d 86cf a13e
000002b0: 6b25 9f3d 99a0 a2bb 0593 373d 86fc 883e
000002c0: ac8a 8a3e 5045 b7ba e6ca c73d 93a4 07bd
000002d0: 4636 913e 8695 82be eb70 a83d 13c2 9dbd
000002e0: 8259 b43e fd95 7c3d 6029 fd3d 1125 98be
000002f0: bad1 273f a080 d2be 464d 663d fecd 95be
00000300: 0f83 333f 0d1e 50bc 7472 8fbd 0aa1 49be
00000310: 8c19 3d3e d38c 213e bdac 4bbd 35fe 48be
00000320: a61d 1a3f 520b fbbd b0e7 90bd 6d90 253e
00000330: bf9c 7abd c286 a93d 483a 04be fb99 4f3e
00000340: e4c6 dd3e bbb4 0cbe 5478 9cbd 1ccd 0e3e
00000350: 6d7a 9ebd 4a98 25bd 563c 99bd becd 473e
00000360: 7118 283e 511e e03e 2b91 9a3d c909 22be
00000370: e954 403e 3bbf 89bf 8d3b 3e3d 235b 0fbe
00000380: 9d87 953e d664 d93e 8962 083d 6bb1 d5bd
00000390: 5fe0 42be a34d 70bf 7d96 f53c 1c6c 1abe
000003a0: 778a 5e3e 5a9b e63e c646 e7bc 5479 0b3e
000003b0: 59c9 e8be 16d6 1abf bf3d d6ba c27e 2b3e
000003c0: 04b3 303f 52a8 1b3f d63f f5bc 15df 9e3e
000003d0: f466 823e 00af b7be 3f1f 9b3c afac ae3e
000003e0: 6c8a bbbc 37fe 273e 9dc2 76bc 652c 5c3e
000003f0: ec18 4dbe 8468 d03e 21f6 8abb 8066 4a3e
0.27123347 -0.27334478 -0.062596165 0.057912778 0.04500809 -1.6968895 -0.045648422 0.058728185
0.19011033 -0.22615981 -0.12736766 -0.1838484 0.14327417 -1.6970342 -0.20021662 -0.23764348
0.27455142 -0.22215413 -0.057724606 0.28749368 0.2715539 -0.9804975 -0.048079927 0.28531042
0.58884114 -0.4753183 0.05724572 -0.12681995 -0.1744014 -0.5679953 0.03791864 -0.14156759
0.44789654 -0.34124509 -0.116798386 0.29386777 -0.1791919 -0.6750361 -0.10036999 0.295477
0.44275698 -0.3038542 -0.090185426 0.15733907 -0.1696299 -0.8408717 -0.06455205 0.16830765
-0.09100638 -0.16785587 -0.032702614 -0.07922163 0.08128751 0.35341838 0.026925636 -0.086458206
0.05588893 -0.07307184 -0.0077192923 -0.29752478 0.40878978 -0.007297559 -0.05897648 -0.37193292
0.091234006 -0.043324832 0.008354571 -0.35296813 0.40859625 0.0110024065 -0.038304936 -0.34290117
0.4939842 0.6107434 -0.017054629 -0.007379317 -0.6126039 -0.24966426 0.017041441 -0.013458196
0.6168878 0.59476507 -0.019578796 -0.10310066 -0.5068251 -0.6280674 0.040639367 -0.12561955
0.63463175 0.63626707 0.043968346 -0.022012057 -0.42188177 -0.97469574 0.008726804 -0.07941841
0.60832375 0.929425 -0.019423122 0.019293861 0.05424109 -0.8797454 -0.03947942 -0.00077790295
0.34229383 0.54974 0.00756397 -0.23689932 -0.07037747 -0.20850633 -0.028239282 -0.2466374
0.3417836 0.4962709 0.019394808 -0.28863052 -0.1361047 0.043047674 -0.026296763 -0.25476378
-0.08769479 -0.02050195 0.041697707 -0.09378358 -0.011409896 0.018928127 -0.00364703 -0.15824641
0.091163136 0.21747035 -0.122633494 -0.05516122 0.18568161 -0.52750593 -0.065659136 -0.054604117
0.12304912 0.36109072 -0.1476732 0.6095356 0.4204198 -0.95481247 -0.12119962 0.6709053
0.21698438 0.9674694 -0.095176585 -0.23791696 0.007062687 0.2743338 -0.093684636 -0.28266147
0.27908355 1.0793511 -0.035341907 -0.22140484 -0.17240135 0.19466119 -0.052050177 -0.24187005
0.3421614 1.049039 -0.009515163 -0.3952874 -0.4846151 0.52429885 0.036271162 -0.34811497
0.17126328 -0.18286249 0.038579892 0.3160364 0.07770809 -0.0049629924 0.044817943 0.2675516
0.27058923 -0.0013982449 0.09755497 -0.033115935 0.2836172 -0.25504702 0.082246624 -0.07703032
0.3522454 0.061666477 0.12361407 -0.2971578 0.6555439 -0.41113758 0.056226037 -0.29258722
0.70121855 -0.012702477 -0.07004252 -0.19690338 0.18466777 0.15776376 -0.049725283 -0.19628222
0.6020149 -0.122580186 -0.07075441 0.16168375 -0.06118464 0.08277656 -0.12912858 0.20273583
0.43315804 -0.13740818 -0.07640138 0.1394543 -0.077381946 -0.040428437 -0.07482211 0.19512078
0.16415574 0.4377313 0.0754722 -0.15824045 0.1878239 -1.0761484 0.04644351 -0.1399961
0.29205027 0.42459744 0.033297095 -0.104342304 -0.19030903 -0.93868464 0.029978985 -0.15080303
0.21732508 0.450404 -0.02823199 0.13620502 -0.45466116 -0.6048292 -0.0016345306 0.16747573
0.69023156 0.6080371 -0.029937666 0.31029573 0.25469172 -0.35875702 0.018935798 0.34116122
-0.022893153 0.16405569 -0.015061048 0.2150131 -0.20029038 0.4070474 -0.0042407666 0.19765663

fc1.bias f4 [400]
00000000: c295 b6be 61ca b9be 2895 053d 4309 f0bd
00000010: 31b4 c8be ff16 b3be db4d 4fbf 6088 bc3d
00000020: bc51 99be 2fd4 0abf 29d1 8e3e 78d3 78be
00000030: c2c5 d3bd 2494 f0bc 1610 853c e082 dfbe
00000040: d16f 40be 1b6a 1dbd bace db3d 85c2 94be
00000050: 1cf1 9fbe 7d15 0abf 25c8 18be 26ac e4bd
00000060: b97a 11bd 54ab c5be 3999 bfbd df38 b63e
00000070: ddc8 dabd 1e89 0ebf 118d 803d d1fb 063f
00000080: ee65 dabe 08f9 de3d 7a31 e4be c067 dc3e
00000090: 8359 9ebe 27dd dbbe 28ea 98be 8738 39bf
000000a0: e8da bebe d137 a5be 4061 89be c23c 60be
000000b0: 9845 fb3d 1ab9 253d 0ac9 c8be 9106 3cbe
000000c0: 9d52 e8be 33e8 6a3e 1c8a 6bbe e7e3 f3be
000000d0: a229 6cbe 1b3e 2abe e821 46be 6744 55bf
000000e0: 023e e8bd 9095 c1be 6641 ddbe 95d0 53be
000000f0: 2a84 cfbe 88d6 2bbf 8f35 153a ad56 6a3d
00000100: 06ce dabe 4247 16bf 78ba 5cbe 4bc6 bbbe
00000110: b3c9 34bf 6999 9abe 333b c8bd 3f6a bbbd
00000120: 269d eabd 8062 ce3e 8d6c d3be e13e 4cbe
00000130: a762 cabe 900b 733b 5038 a2b9 1e57 2cbf
00000140: cbd7 edbe 60da a6be 6ee3 89b9 066f d7be
00000150: bf2a 03bf f229 e5be 18bf 2abf 67d0 cbbe
00000160: ce7d 0fbe 41b7 30be 7698 6abe cc27 b33d
00000170: 0d4b 283c 45e6 18be 337e 78be 3344 b8be
00000180: 2923 6ebe 3154 eabe edba 353c 4874 83be
00000190: 1acd 19bf dc4d b8bd 8f24 0ebf 5b73 90be
000001a0: bb22 58bd de43 1cbf 8423 ccbe 7816 40be
000001b0: db6b 38be f4e6 e93d a786 a5be 8ed1 59be
000001c0: bc5b 93be 7366 e0bc 35df 6bbe f881 24bf
000001d0: e2a3 febd 27cd f8be 5ae3 28bd f73e 4e3d
000001e0: f99a 84be def4 02bf fee0 d1be 4920 95be
000001f0: d6d7 a2bd 3447 c33c e744 60be 99ba d7bc
00000200: fd6b 30be 29fd 94be 3e3b 673d 0cb5 b5be
00000210: 62df 72be e504 e1bd cddd 4dbe f26d bfbe
00000220: 8c9f f73d 3ce3 07bf 5e3b 03bf f088 13be
00000230: 907d 16bf e837 383d dc9a b3be 1a2f 4abe
00000240: 153d acbd aa5c 27bf 969c c2be 3331 35be
00000250: 2292 cfbd 6616 91be 8553 5fbe 0428 dcbd
00000260: 3fe0 073c e34a 24be ce49 c9be e343 43be
00000270: 6540 15bf 2173 98be 966e d7be d17a cbbe
00000280: 5358 9f3e 9dc9 5ebe 00fa 74be b60e afbe
00000290: 80e3 4bbe 3e4f 9ebe f772 0abf a458 bdbe
000002a0: 7b27 d3be b593 3dbd c3cd dfbe b073 ccbe
000002b0: f19d a4be 308a d8be 9705 19bf 0b5a 74be
000002c0: edc1 e0be d5c6 32be 9ef8 6c3e abc0 b8bd
000002d0: 9686 813d cad9 a4bd 0b6d b1be 498c 31be
000002e0: 3621 64bd 1f97 a4be 8b13 58be d770 1bbe
000002f0: 56cd 4e3e 5373 dcbe 28f5 a4be 2911 04bf
00000300: 18d3 e8be fb82 a6be 7860 0abe 4e78 933d
00000310: dad0 00bf a7d0 89be 4f74 8ebe 7288 19bf
00000320: e9ea abbe cb0e c5be 74c6 0dbf 6310 a1be
00000330: 86cd cabe 8c3f 8b3e e28c e5be 3e9d 36be
00000340: 0a13 ebbe 4219 c7be 4915 e9be d2cd 90bb
00000350: 8f25 86be 75aa 87be 0709 36be be2c 883e
00000360: a854 963e 29a7 5d3e b1ff c8be c079 0fbe
00000370: c12c cdbe d6ec e7be 5adc d3be 6bd2 fabe
00000380: ef5b a6be 7111 bf3e b658 ccbe 6d15 86be
00000390: afa6 1fbf 0581 6c3e e37d 85bd 36c1 d2bc
000003a0: 77f4 85be f2c9 abbe 661d bebe d515 ad3e
000003b0: b99a 1abe a818 bbbe 1c6a f2bd 2394 2cbe
000003c0: d5fd 28bf 8107 73be 4ad5 48bd a1dc d2be
000003d0: 8ca7 56be 053d 703e 6115 0fbd 5ee8 81be
000003e0: 7da0 12bf 1bb1 7f3d ad13 c7be 66e9 593d
000003f0: 1e9b 90be d13f 0abe fac9 49be 4dab d9be
-0.3566113 -0.36287215 0.03261295 -0.117205165 -0.39199975 -0.34978482 -0.80978173 0.09205699
-0.2994517 -0.54230016 0.27893952 -0.24299419 -0.10340454 -0.029367514 0.016243022 -0.43654537
-0.18792655 -0.03843127 0.10732789 -0.29054657 -0.3123864 -0.5393904 -0.14920099 -0.11165647
-0.035517428 -0.38607275 -0.09355397 0.35590264 -0.10682843 -0.55677974 0.06276906 0.5272799
-0.4265589 0.10887343 -0.44568998 0.43047905 -0.30927667 -0.42942163 -0.29866147 -0.7235188
-0.37276387 -0.32269147 -0.26832008 -0.21898177 0.12269133 0.04045973 -0.3921588 -0.1836188
-0.4537553 0.2294014 -0.23001903 -0.47634813 -0.23062757 -0.16625254 -0.19348872 -0.833075
-0.11339952 -0.3780942 -0.43213958 -0.20685036 -0.4053052 -0.67124224 0.000569188 0.057211567
-0.42735308 -0.5870248 -0.21555507 -0.36674723 -0.7062027 -0.30195168 -0.09776916 -0.09151124
-0.11455755 0.40309525 -0.41293755 -0.19945861 -0.3952839 0.003708575 -0.00030941004 -0.6732043
-0.464537 -0.32588482 -0.00026300125 -0.42076892 -0.512371 -0.44758564 -0.66697836 -0.39807436
-0.14012834 -0.17257406 -0.22909722 0.08747825 0.0102718 -0.14931591 -0.24266891 -0.35989532
-0.232556 -0.45767358 0.01109193 -0.25674653 -0.60078585 -0.089992255 -0.55524534 -0.2821301
-0.052767497 -0.6104106 -0.39870846 -0.18758571 -0.18009894 0.11421004 -0.32329294 -0.21271345
-0.28780925 -0.027392602 -0.23034365 -0.64260817 -0.12433602 -0.4859402 -0.041232444 0.050353017
-0.25899485 -0.5115489 -0.40991968 -0.29126194 -0.07951324 0.023837663 -0.21901284 -0.026334094
-0.17228694 -0.29099396 0.056452982 -0.3548969 -0.23718026 -0.10987262 -0.20104142 -0.3738857
0.12090978 -0.5308111 -0.5126246 -0.14407706 -0.58785343 0.04497519 -0.35079086 -0.1974453
-0.08410088 -0.6537577 -0.3801009 -0.1769455 -0.101352945 -0.283374 -0.21809204 -0.1074982
0.0082932105 -0.16044192 -0.3931412 -0.19068865 -0.58301383 -0.29775336 -0.42076558 -0.3974214
0.31122074 -0.21756597 -0.23923492 -0.3419091 -0.19911003 -0.30919832 -0.5408167 -0.3698169
-0.4124106 -0.046283443 -0.4371167 -0.39932013 -0.3215175 -0.4229293 -0.59774154 -0.23862474
-0.43897954 -0.17458661 0.23141715 -0.090211235 0.06324498 -0.080493525 -0.34653506 -0.17338671
-0.055695735 -0.32146546 -0.21101205 -0.15179764 0.20195517 -0.43056735 -0.3221829 -0.51588684
-0.45473552 -0.32521805 -0.13513362 0.07200681 -0.5031868 -0.26917002 -0.2782311 -0.59973824
-0.3357766 -0.3848785 -0.5538094 -0.31457815 -0.39609927 0.2719692 -0.44834048 -0.1783342
-0.45912963 -0.38886458 -0.45524052 -0.004419067 -0.2620053 -0.26497236 -0.17776881 0.26596636
0.29361463 0.21645798 -0.39257577 -0.14011288 -0.40073207 -0.4529788 -0.41379052 -0.4898866
-0.32492015 0.37317994 -0.3991143 -0.26188222 -0.62363714 0.23096092 -0.065181516 -0.025726896
-0.26163074 -0.3355251 -0.37131804 0.3380572 -0.15098085 -0.3654225 -0.11836645 -0.16853385
-0.66012317 -0.23733331 -0.049031533 -0.41183951 -0.20962352 0.23460777 -0.034932498 -0.25372595
-0.57276136 0.06242476 -0.388822 0.0532011 -0.28243345 -0.13500907 -0.19705954 -0.42513505

fc2.weight f4 [300, 400]
00000000: 3511 c5bd 63fa 9bbe 9cea 13be b505 45be
00000010: 8ecb 80bc 52f4 abbe 3df7 32bf d697 32be
00000020: aa6e 89be 37f2 9cbe de9d fa3d 797a 06bf
00000030: ecb9 e5bc cadb c2be 5a9a afbe e871 7dbd
00000040: 6135 43be 26a8 35bd 5531 65bd fe00 8cbe
00000050: 26b8 4b3d 3113 223e 7059 8a3e 9e63 ea3d
00000060: afde 793e 348e 833e fe1a 50bd cdc2 d3be
00000070: 4ff9 30be 9fef a8bc abd1 5bbd ecd6 90be
00000080: 1dff 4e3d 22ff 00be da1a 11bd adc7 c5bd
00000090: c244 203e c879 f5bd aab6 443e 6224 36bd
000000a0: f8dc f0be 98cc 883d 062a a9be c322 df3a
000000b0: a655 47be c2fe 033e 954e 15bf 3bfc 833d
000000c0: f56b 13bd cf84 30be b37a 83bb 35e2 50be
000000d0: a80a 933d 37b1 a7bd eecc 8dba 0710 b2be
000000e0: 46cf 23bc 5ee2 bbbe c4ab d7bd b43f d2bb
000000f0: bf42 b9bd 686d 20bc 3fb8 fbbe 4115 a4bc
00000100: cf64 1dbc 1e67 07be 5fbe 8f3c 0ceb 81bd
00000110: 1163 4ebe debf 713e d8af 36be c921 8b3c
00000120: 420a ef3b a983 0bbf 6b4a 36be 341d a3be
00000130: cf08 c13d cdbb 903d aab4 cfbe 6c98 12be
00000140: 1f7d c0bd 59f2 c8bd c913 5dbd 0ced 52bd
00000150: d160 f1bd fb64 39be 5104 d33d f8f6 483d
00000160: 3c03 00bf bd03 f4be 7c7d 5abe 1d82 0bbd
00000170: 36dc a13e ea3d 06bd ff38 f8bd c0c0 44be
00000180: 2d18 45be da95 21be d038 30be a5b4 c6bd
00000190: 3f21 21bd e630 3cbe 3874 debb f8ba 87bd
000001a0: ce9f 263e 060f 8dbe 6288 10bf a5e9 1a3d
000001b0: 46ad 8ebe e6b7 a6be 4316 9f3e 43e9 fdbd
000001c0: dc09 61be 47e4 593d 2f62 de3d 02d1 4fbe
000001d0: 2e57 31bc 21c1 55be 1513 d53b 84a1 953c
000001e0: 68cd a9bd 50b7 55bd 7d5c 9dbe 8fe8 9a3c
000001f0: 53ea f83c 0f60 37be e71c 803e ae63 703d
00000200: e9f1 95bc 52ee 65be 6f16 11bd 1c67 943b
00000210: 19e4 a23e f0c2 03bf c5aa bbbc 9e8d e53e
00000220: 984f 713e 3824 cbbe 4916 d5be f635 23be
00000230: 2529 473d eb4e acbe 6f36 1ebe 3895 36bd
00000240: eeb8 1bbd b52e 90be 3d0e 223e 1edb 97be
00000250: 2e3e e63a ac5c bb3d 974b aebd 74c5 1abe
00000260: ebdd a63d 60b3 b5bd b135 29be f2dd c2bb
00000270: 21fd 123c 4e0f 8a3b 387e 8cbe ad29 a1bd
00000280: 5027 84be 684f 0ebe c8d3 27be a5ef d3bd
00000290: bf5b 73be 90f8 2dbf 0255 32be fb4d f13c
000002a0: 8890 edbc 5efb d7bd 7fcd 8ebe 7cde 973d
000002b0: 782d ae3c 2bc8 5dbe 3c0c ce3d 6023 d83e
000002c0: 6fe0 aebe 3abe 7b3c 3579 27bb 4dac 42bd
000002d0: 2b37 8bbe b955 d63d 39d1 063e ac6f bfbe
000002e0: d07e eabd fdf1 b33d 8f5f e7bd 520d 11bd
000002f0: f328 96bd 41a6 e6be 6c2b 95bd d35f e33c
00000300: fce7 0abe 5707 7cbd b7f5 77be 0a17 6cbe
00000310: d035 e4bd 8c64 95be dc02 6d3e a6d8 7f3d
00000320: 2be4 c6be bdd2 57be f777 38be ab54 e13b
00000330: bcc4 5bbd 44c3 0dbe bea9 84be 2f52 35be
00000340: a3c1 3abe a3cd d2be 9b64 8a3d daf5 1b3e
00000350: 4513 153c 28cb d13d e985 8abe b75c a5be
00000360: cc3c 7c3d ec62 0e3e 3f53 e43d 8d22 d73d
00000370: 4b75 dabe 670f 13bd c8bf 55be cf8c cb3d
00000380: 9ad5 fabd 743c d5be ebb5 ecb8 639a 153e
00000390: 06d0 ecbd db3f b6be f4e3 9f3e 8f68 173c
000003a0: 2f86 05be 1ef6 2f3e c7af f6be 991f 15be
000003b0: af15 c7be 633c c1bd f34c 38be bc55 a93c
000003c0: 11ea eebd 3bb1 02be b10b 84bd cd4b 88bc
000003d0: 4cf2 9c3b b311 98be 7525 55be df65 05be
000003e0: 6f70 08be 40dd 56be c473 cebd d5bf bd3d
000003f0: d939 21bd ef62 32bd 305d 073e 4055 5bbe
-0.096224226 -0.30464467 -0.14444965 -0.19240458 -0.015722062 -0.3358484 -0.69908506 -0.17440733
-0.26842242 -0.30653545 0.12237142 -0.5253063 -0.028042756 -0.3805831 -0.34297448 -0.061876208
-0.19063331 -0.044349812 -0.05595525 -0.27344507 0.049736165 0.15827633 0.2702136 0.11444782
0.24401353 0.2569443 -0.05080699 -0.4135956 -0.17282604 -0.020622073 -0.05366675 -0.28288972
0.050536264 -0.12597325 -0.035426 -0.09657226 0.15651229 -0.119861186 0.19210306 -0.04446829
-0.47043586 0.06679648 -0.33039874 0.001702391 -0.19466266 0.12890151 -0.5832303 0.064445935
-0.035991628 -0.17238162 -0.0040124296 -0.20398791 0.07179767 -0.08188098 -0.001081852 -0.34777853
-0.009998148 -0.36696142 -0.105308086 -0.0064162854 -0.09045934 -0.0097917095 -0.49164006 -0.020029666
-0.009606554 -0.1322293 0.01754683 -0.0634366 -0.20154978 0.23608348 -0.17840517 0.016983883
0.007294924 -0.5449777 -0.17801826 -0.31858218 0.09425508 0.0706707 -0.40567523 -0.14315957
-0.09398865 -0.09811849 -0.053973947 -0.051495597 -0.117860444 -0.18104927 0.10303558 0.049063653
-0.50004935 -0.47659102 -0.21336931 -0.034059633 0.3161332 -0.03277389 -0.12120246 -0.19214153
-0.19247504 -0.1577982 -0.17209172 -0.09702424 -0.039338347 -0.18378028 -0.0067887567 -0.06627458
0.16271898 -0.27550524 -0.56458104 0.037820477 -0.27866572 -0.32562178 0.31071672 -0.12398007
-0.21976417 0.053196218 0.10858571 -0.20294574 -0.010824008 -0.20874454 0.006502519 0.018265493
-0.08291131 -0.052176774 -0.30734625 0.01890972 0.030385172 -0.17907737 0.2502205 0.058688812
-0.018303828 -0.22454193 -0.035421785 0.004528893 0.3181465 -0.51469326 -0.022908578 0.44834608
0.23565519 -0.3967607 -0.41618565 -0.15938553 0.048623223 -0.3365396 -0.15450452 -0.0445759
-0.03801816 -0.28160635 0.15825744 -0.2965936 0.0017566138 0.09148535 -0.08510511 -0.15114385
0.08147796 -0.08872104 -0.16524388 -0.005946868 0.008971483 0.0042132502 -0.27440047 -0.07869277
-0.25811243 -0.13897479 -0.16389382 -0.10348443 -0.23765467 -0.679574 -0.1741524 0.02945613
-0.028999582 -0.10545991 -0.27891156 0.074154824 0.021261916 -0.2165839 0.10060927 0.4221449
-0.34155604 0.015365178 -0.0025554423 -0.0475276 -0.27190527 0.10465569 0.1316575 -0.37389886
-0.11449969 0.0878639 -0.11297523 -0.035413094 -0.07332029 -0.45048717 -0.07283673 0.027755653
-0.13565058 -0.061530437 -0.24214827 -0.23055664 -0.111430764 -0.29178274 0.23145622 0.06246247
-0.38845953 -0.21076484 -0.18014513 0.0068765483 -0.053654417 -0.13844019 -0.25910753 -0.17707132
-0.18237929 -0.41172513 0.0675747 0.15230504 0.0090988325 0.10243827 -0.2705529 -0.32297298
0.061581418 0.13904923 0.111486904 0.10504637 -0.42667612 -0.03590336 -0.2087394 0.099389665
-0.122477725 -0.41647685 -0.00011287242 0.14609675 -0.11563115 -0.35595593 0.31228602 0.009241237
-0.13039468 0.1718373 -0.48180982 -0.14562835 -0.3888373 -0.09435346 -0.17998104 0.020670764
-0.116657384 -0.1276292 -0.064475425 -0.016637707 0.004789626 -0.29701003 -0.2081507 -0.13027142
-0.1332414 -0.20982838 -0.10080674 0.09265105 -0.03936181 -0.04355138 0.13219142 -0.21419239

fc2.bias f4 [300]
00000000: 642f 38be a353 f4be db9f 3bbd c4df 04bf
00000010: 153f fdbe 32f3 12be 30f4 c43b f5ba 61be
00000020: 3b18 d43a 8f1a a9bd bc9c 09bd 9c7c a23d
00000030: a353 09bf eff0 cabd 0f5a 2bbe 217a ae3d
00000040: 51e1 73bd 4de2 47bd 4e72 b53d f22e 68be
00000050: 4533 e43d 46ff 24bd b63f 85be 1113 3ebd
00000060: 29e4 b4bd d78d 04be 3bc1 14bf 0adc fdbe
00000070: 8829 2abe 30bc 85bd 87bb 0fbd 8d77 53bd
00000080: c40c 05bd ea9a bebd 3d81 95be 6f8a c7bd
00000090: 9857 0f3c b30d 8bbd 5456 03be 9320 ffbd
000000a0: 5bfe a93d 0334 6ebd 361e c8be b8a9 593c
000000b0: 34c9 7cbc 9533 22bd ae76 22be 74b4 ebbc
000000c0: 0a35 94bd 9d99 a5be 04bb ffbc c917 80bd
000000d0: 0322 593e 982c c3bd 4040 15bd 25c1 41bd
000000e0: 4317 edbc 04b9 a7bc 9e8a f3bc 0d40 70be
000000f0: 6e0a 37bd 5866 173c e988 a6be a51c 3ebc
00000100: c0aa c2bd c0fa 1f3c ae69 403d 237f 22bd
00000110: baf7 e23c a1dc a5bd a1b5 89b9 12c5 433e
00000120: 9204 dabc a2e1 1bbd d88a 81be 66c4 293d
00000130: f7df 06bd 981e a0bd 57d6 dabd 30f8 333e
00000140: 0e1b 7fbe 8cb1 443e c590 edbe b1f4 69bd
00000150: 6756 86bc e305 fb3d 89e4 8a3e b286 33bd
00000160: 25c6 8dbd 9bba 45bd 4bb5 a63a d01e 1cbd
00000170: 13cc 49bd 5d57 603e 6c5e 9dbd bc16 303e
00000180: 277a 01be c1db 91bd 32dd 86bd 010d 2f3e
00000190: e80f 18bd 1cb8 d3bd b5bf ddbd 5deb 94bd
000001a0: da8c b23d 6ae9 a8be b61a 12be aa3c a9bd
000001b0: 43b1 4cbd 8d92 d5bc 8aea 653e 5e3c f53d
000001c0: 115f e83d befc 283c 1e83 51be 64f2 353e
000001d0: ebf5 1bbe ee8f 0dbd 9cac 1dbd c45c 043c
000001e0: 3a43 61bc b3b2 c0bd 90e0 6bbe 018d c2bc
000001f0: 32fe 05be 3bac 81bd 1e4b 44be 3cca 50bc
00000200: 48eb a4be 6af3 25bd 135f 243e 8840 eebd
00000210: 595c 62bd 9da0 71bc efd0 97bd cb2d 00bf
00000220: 3e11 28bf 0861 0ebd 4ee8 a9bd 4c9b 98bd
00000230: f835 b2be 67ed 8c3e 6658 2ebd eb0e 08bd
00000240: e7e3 33be 52df f7bc 6b73 2fbd df2c a3bd
00000250: 1b12 ebbc 9990 15be 1a9c adbd c6c3 5fbe
00000260: d2f8 babd 457e 02be 4339 98bd e8a9 ddbe
00000270: 7a8b 1ebf 53ff 7fbe 300f 1f3e cbce cdbd
00000280: 2138 4fbc eb35 ad3c 57c1 94bd 7f95 a6bd
00000290: c609 10be 02f0 71bd caa2 babd ba3b 40be
000002a0: 7093 81bd a6a4 15be 1274 64bd 4d5c 1abe
000002b0: 5e97 1bbe 9c22 afbd 9c2c 26be 7804 dcbd
000002c0: bfb1 65bd 2c7b 82bc cb31 32be fbaf 433e
000002d0: 9db5 78bd 6344 dbbd 43d4 07be 6ca1 86bd
000002e0: 40ab 1f3d 3c1b d3bd 03c1 be3d 44d0 4d3b
000002f0: 9fce 07be 2b23 2bbd ccc7 80bd 760e d1bd
00000300: 9097 56bb 187e 8fbe 31d5 883d bc3d cfbc
00000310: f931 523e 4fdc a0be 9e6b adbd 5faf 5d3e
00000320: 91d2 32bc cecd 21be 672f b5bd a292 dd3d
00000330: 0a95 85be 0091 bfbd fe7c 6bbd 0300 8e3c
00000340: 1c58 343e 8222 a5bd 5a51 bbbc d425 d3bd
00000350: c4b9 87bd 31ce f1bd 7f8e 60be f924 253e
00000360: 5141 09be a84d 3cbd d5c2 c63c a6a7 a3bd
00000370: 1a85 a9bc 808f da3d e897 edbd 5000 3cbe
00000380: c3d3 0dbd d15a 5abc c091 d0bd d405 69bd
00000390: b906 61be 8aa1 a7bd 9341 4fbd 3c20 79bd
000003a0: fc93 99bd 0daa 88bd 566b 01bd 4bc8 e2bd
000003b0: b303 453e 6551 4dbd f6d4 7bbd 64c5 5a3d
000003c0: 3f0f a5bd 1ee8 20be 6455 5c3d efff 23be
000003d0: 0e7f 2bbf ba65 04bd 40c3 023d 93f4 69bd
000003e0: dfae 87be 1e99 46bd 17a6 91bc b27d 1dbd
000003f0: 0057 e23b a57a ca3d 5066 a5bd a176 8fbc
-0.17986828 -0.4772006 -0.045806747 -0.5190394 -0.4946219 -0.14350584 0.0060105547 -0.22043975
0.0016181538 -0.08257019 -0.03359674 0.079339236 -0.53643245 -0.09909236 -0.16733573 0.08519388
-0.05954105 -0.0487998 0.088596925 -0.22674158 0.111425914 -0.04028251 -0.2602517 -0.046404902
-0.088325806 -0.12944733 -0.58107346 -0.4958194 -0.16617405 -0.065300345 -0.03509095 -0.051627684
-0.032482877 -0.09306891 -0.29200163 -0.09743201 0.008748911 -0.06789722 -0.128259 -0.12457385
0.083004676 -0.05815507 -0.3908555 0.013285093 -0.01542883 -0.039599974 -0.15865585 -0.02877257
-0.07236679 -0.3234376 -0.031217106 -0.06254537 0.2120438 -0.0952999 -0.036438227 -0.047303338
-0.028941756 -0.020473965 -0.029729184 -0.23461933 -0.04468768 0.009240709 -0.3252633 -0.011603509
-0.09505224 0.009764373 0.046975784 -0.03967203 0.027706016 -0.08098722 -0.00026266 0.19118145
-0.026613507 -0.038056977 -0.25301242 0.041447066 -0.032928433 -0.07818335 -0.10685413 0.17575145
-0.24912664 0.19208354 -0.46399513 -0.05711812 -0.016398622 0.12256982 0.27127483 -0.043829627
-0.06922559 -0.048273664 0.0012718824 -0.038115323 -0.049266886 0.21908326 -0.07684025 0.17196172
-0.12644254 -0.07121993 -0.065851584 0.17094804 -0.037124544 -0.103378505 -0.10827581 -0.072714545
0.087182716 -0.3299058 -0.14268002 -0.08263524 -0.049973737 -0.026070857 0.22452751 0.11974405
0.113462575 0.010314165 -0.20460173 0.17768246 -0.15230529 -0.03456109 -0.03849469 0.008078758
-0.013748938 -0.09409084 -0.23034883 -0.023748877 -0.13085249 -0.063316785 -0.1916928 -0.012743529
-0.32210755 -0.04051534 0.16051893 -0.11633402 -0.05526385 -0.014747766 -0.07412898 -0.50069875
-0.6565131 -0.034760505 -0.08296262 -0.074514955 -0.348068 0.27524874 -0.042564772 -0.033217352
-0.17567407 -0.030257855 -0.04283468 -0.07967543 -0.028695157 -0.14605941 -0.0847704 -0.21852025
-0.0912949 -0.1274348 -0.07432797 -0.4329369 -0.61931574 -0.24999742 0.15533137 -0.10049208
-0.0126476595 0.021143874 -0.07263439 -0.08133983 -0.14066228 -0.05906678 -0.09113081 -0.18772784
-0.063269496 -0.1461359 -0.055774756 -0.15074272 -0.15194461 -0.08551523 -0.16227955 -0.1074304
-0.056077715 -0.015927874 -0.17401807 0.191101 -0.060720075 -0.10706403 -0.13264565 -0.065737575
0.038981676 -0.10307929 0.09314158 0.0031404654 -0.13262413 -0.041781586 -0.06288108 -0.10207836
-0.0032744147 -0.2802589 0.06681288 -0.025297992 0.20526876 -0.31418082 -0.08467792 0.2164893
-0.010914461 -0.15801165 -0.08846932 0.108189836 -0.2609027 -0.093538284 -0.05749225 0.01733399
0.17611736 -0.080632225 -0.02286594 -0.103099495 -0.06627229 -0.11806906 -0.21929358 0.16127385
-0.13403822 -0.045972496 0.024262825 -0.07990961 -0.02069335 0.10671902 -0.116012394 -0.18359494
-0.03462578 -0.013327316 -0.101840496 -0.056890324 -0.2197522 -0.08185108 -0.050599646 -0.060821757
-0.07498929 -0.066730596 -0.031596504 -0.11073359 0.19239692 -0.050126452 -0.061482392 0.053410903
-0.080595486 -0.15713546 0.053792372 -0.160156 -0.66990745 -0.032323577 0.031924486 -0.05711801
-0.26500604 -0.048485868 -0.017779393 -0.03844995 0.006907344 0.09886674 -0.08076155 -0.017512621

fc3.weight f4 [2, 300]
00000000: 3214 58be f09b 94be 828c 2bbd 723a 733e
00000010: 89e6 a73d f08d f6bd 97a1 d7bc fd36 77be
00000020: 4a50 17bc 044e 533c 371f 073c 17f3 173e
00000030: 9a07 6b3d cbd4 56be 469e e3bd 1f6f 39be
00000040: a064 9d39 2fd1 a0bc da63 813d 8132 f8bd
00000050: 20fc fbbe 1310 2abb e08a 793d e423 45bf
00000060: 280a 013c 49f8 8cbe 29f7 273e e02a 223e
00000070: 3fa9 573f 6d32 5f3b 693a 393b ab99 183c
00000080: db87 0b3c 4672 7abd 393c 543d 4e4f 513c
00000090: 6e0e 03bc ff5a 823b 0f3f 73bd 0543 31bc
000000a0: 60d6 93bf 8865 9ebc 51ae acbb 0903 37bc
000000b0: 1ad8 c53c 75a9 283b 7321 7f3d 3ff4 b8bb
000000c0: 3382 5bbc 83b1 033e 4e85 a7bc 4169 f139
000000d0: 21fd 803c 34c7 b03c 6319 cdbb f00d 45bc
000000e0: 4261 a43c 0cbe 45bc 7aa1 63bb e3fe 8d3d
000000f0: 8e5f d43e ddf5 773c 8cd2 c03d 8774 e13c
00000100: a127 da3b fb26 17bc 2531 70bd 2c29 efbd
00000110: 32e2 88be 7061 64bc 830d a9bb 6ebc cdbd
00000120: 03ac 36ba 34b4 363b 90c4 8fbe 1ea6 b3be
00000130: 80de 83bb 575b b0bc b382 af3c 32e3 09be
00000140: d6a3 44be 4775 bf3f d401 dabd b654 a4bb
00000150: 7aef 8dbb dca5 55bd 6760 223f f280 a93e
00000160: 866b 63bc d02d b4bc 504e be38 7e72 813b
00000170: 29a7 963c 3506 bcbd c746 9fbc 4aee a6bd
00000180: fcc6 60bc 53bb f1bb 0d1e 5c3f ee00 9b3d
00000190: f460 88bd b2d4 ef3e cd5c 16bc 862e a73e
000001a0: a903 4abe 2244 473e 8222 dd3d 435a c7bc
000001b0: f9d2 51bc 312a c8bc feae 433e 5dbb 0b3e
000001c0: d5a7 b0bd 36b1 8abd fc2e 273d 1990 19be
000001d0: 5ccc 8dbe 3912 cd3c 37ca 88bc d7eb cb3b
000001e0: ca77 353c b71c 2f3c 35a8 19bf 3f86 ab3b
000001f0: 5e9f dfbc f971 033e 1155 0bbe 35b0 5f3c
00000200: d749 f4bd ba39 a53b 913f 573e 82e1 c73d
00000210: 4a5a babc 9b0a cc3e 3942 52ba 368c c93c
00000220: 1b4e c83d 28da 23be 2b7c dbbb 3bfa 613b
00000230: c3b4 34be 16e8 233f 4508 883e c0c6 83bc
00000240: cc5e 09be f232 ce3c 27c8 a93c 4e43 f03d
00000250: 8428 4e3c 28e8 bf3d aeeb 47b9 eac5 06be
00000260: 9518 253c 8dea 78bc b29c a2b8 c83a 02be
00000270: 1f25 303d 3765 303d e49e e33c 7d39 febb
00000280: e873 87be 903e cebd ab09 023d a3b4 d8bc
00000290: e11d 453b 1cbc a2bb f02f cb3c f858 8fbc
000002a0: 6f79 b8bc a681 4fbc 90ab fdbb 68a8 e13d
000002b0: 8940 fa3a 00db 5d3c 9d53 6a3e 35f2 51bc
000002c0: 08c4 833c 42c6 ef3a 63e3 203e 4f4e 84bd
000002d0: 6362 123c 1b1c 4f3e db56 6abc 670d 543c
000002e0: 5696 55bd d9b6 21bd 9fe5 79bd 6fdf 813b
000002f0: 8aae 9438 934a a23e f530 b9b9 79ee 24bf
00000300: d0f0 233c a393 50be f385 8abd a6d8 6c3a
00000310: 1e46 82bc 02ef 7ebe 18fb fcbc b366 b3be
00000320: 3d3b 303c 9a87 c7bd 284e 113b a575 0abf
00000330: c9b6 ef3d 17d5 313c 76aa 1abc f36d ef3c
00000340: 5333 eebd 4b07 a73b fd06 92bb 7082 eebc
00000350: 07de e2bb 2101 6a3d 4282 c4be 6779 ac3d
00000360: e476 d5bb cd71 ac3b d749 893c 5ab2 363c
00000370: c34b ec3a 4cb5 533d d016 a4be f2f4 29bd
00000380: a664 433c dbc9 18bd 4cff a4be bac1 e83b
00000390: 42e3 96bd a5a4 5b3b 5b34 ed3b 6919 893c
000003a0: fdc4 933d f828 9339 3f1f 8cbc ce6b 203d
000003b0: 1ac9 e03c 6570 ed3b 47b9 2a3d 09f7 13bc
000003c0: 6cd8 e9bb 34dc f2bd 4f06 f8bd ea65 373d
000003d0: 4817 8a3d 0d5f 1bbd a753 363e 9411 efbb
000003e0: 270a 123e e07d 583f adee a43b fd31 1f39
000003f0: 6898 60bc 64bb af3c 546c f23d 7478 043c
-0.21101454 -0.2902522 -0.041882046 0.23752764 0.08198268 -0.12038791 -0.02632217 -0.2414207
-0.009235451 0.012897018 0.008247188 0.14838825 0.057380296 -0.20979612 -0.11114173 -0.18108796
0.00030020345 -0.019630997 0.06317873 -0.12119008 -0.49215794 -0.0025949522 0.060923457 -0.7700789
0.007875957 -0.27533177 0.16402878 0.15836668 0.84242624 0.0034057156 0.0028263575 0.009313981
0.008516277 -0.061144136 0.051815245 0.012775255 -0.007999046 0.0039781327 -0.05938631 -0.010819201
-1.1549797 -0.019335523 -0.0052698036 -0.011170157 0.024150897 0.002573577 0.06228776 -0.005644351
-0.013397741 0.12860684 -0.020449307 0.00046045522 0.015745701 0.021579362 -0.00625913 -0.012027249
0.020065907 -0.0120692365 -0.0034733699 0.069333814 0.41479152 0.015134302 0.09415159 0.027521385
0.006657556 -0.009225602 -0.058640618 -0.11677775 -0.26735073 -0.013939247 -0.0051590814 -0.10045706
-0.0006968381 0.0027878406 -0.28079653 -0.35087675 -0.004024327 -0.02152793 0.021424627 -0.13465574
-0.19203123 1.4957665 -0.1064488 -0.005014981 -0.0043315263 -0.05216013 0.6342835 0.3310619
-0.013880616 -0.021994501 9.074493e-05 0.003950416 0.018390255 -0.091808714 -0.019442929 -0.08150919
-0.013719317 -0.007377067 0.85983354 0.07568537 -0.06659117 0.4684196 -0.009177399 0.32652682
-0.19727959 0.19459584 0.107975975 -0.024335032 -0.012806647 -0.02443418 0.19109723 0.13645692
-0.086257614 -0.067720816 0.040816292 -0.14996375 -0.27694976 0.025033103 -0.016697986 0.0062231827
0.011075923 0.0106879985 -0.6002229 0.0052345092 -0.027297672 0.12836446 -0.13606669 0.013652851
-0.11928146 0.005042282 0.21020342 0.09759809 -0.022748131 0.3985184 -0.0008020732 0.02460299
0.097805224 -0.16001189 -0.0066981516 0.0034481424 -0.1764708 0.6402601 0.2656881 -0.016085982
-0.13415068 0.025170777 0.020725323 0.11731587 0.012582902 0.09370452 -0.00019065916 -0.13161436
0.010076662 -0.01519264 -7.753949e-05 -0.12717736 0.04300415 0.043065276 0.027785726 -0.007758318
-0.26455617 -0.100705266 0.0317475 -0.026453322 0.0030077624 -0.004966272 0.024803132 -0.017498478
-0.022518842 -0.012665188 -0.007741399 0.11018449 0.0019092719 0.013540983 0.22883458 -0.012814094
0.016084686 0.0018293338 0.15711741 -0.06460249 0.00893459 0.20225565 -0.0143029345 0.0129426485
-0.052145325 -0.039481018 -0.06101 0.003963403 7.0897004e-05 0.3169752 -0.00035322426 -0.6442638
0.010006145 -0.20368819 -0.0676383 0.00090349687 -0.015902575 -0.24895862 -0.03088145 -0.3503929
0.010756311 -0.09742661 0.002217183 -0.5408576 0.117047854 0.010854027 -0.009440055 0.029227233
-0.11630883 0.005097305 -0.0044563995 -0.029114932 -0.0069234404 0.057129983 -0.3838063 0.08421593
-0.006514417 0.0052625895 0.016758842 0.011150921 0.001802795 0.05168657 -0.32048655 -0.041493364
0.011925852 -0.03730188 -0.32226026 0.007103172 -0.07367565 0.0033514884 0.0072389073 0.01673575
0.07215307 0.0002806855 -0.017104743 0.03916531 0.027439643 0.0072460645 0.0416806 -0.009031066
-0.007136395 -0.11858407 -0.12110578 0.044774927 0.06742722 -0.037932444 0.17805348 -0.0072957966
0.14261685 0.8456707 0.005033335 0.00015182044 -0.0137082115 0.02145166 0.11837068 0.008085359

fc3.bias f4 [2]
00000000: cbc2 4abe 7951 81be
-0.1980087 -0.2525747
