checkpoint_critic2.pth (torch_old, 159730 bytes, 5 tensors)

fcs1.weight f4 [256, 24]
00000000: d1f1 083d 8791 a2bd 4048 933c 9b57 4ebc
00000010: ae88 20bf aa28 cabe 0eea cebc 3cec 963c
00000020: 7303 0dbd 8ce6 0e3e 8681 4c3c c673 833c
00000030: ded0 54be 69ed 72be 2ef0 5ebc f455 fbbc
00000040: b438 ccbc c6a2 92bc efda afbb 1034 36bd
00000050: e073 513f c7ff 173f 5dc9 ca3a c5bc 5c3c
00000060: 4961 d93a 5888 3c3f 5677 57bc d044 dcbb
00000070: 7481 de3c 3b2e 323d d04b f73c f2fc 9fbc
00000080: 8255 9e3d 4301 343f f1e1 64bd cc16 c5be
00000090: dddb 4a3d 5792 a13d b860 1d3d 2c18 d0be
000000a0: 76a2 0f3e 2518 0a3f 6f4c 1abd 8f53 40be
000000b0: ae91 9c3e 1b6b 11bf f802 e7bc 967a bdbd
000000c0: 9429 033f d9fd 5b3f 903b 5bbd d7c9 d03e
000000d0: eb0a 613e d11c cfbe 92cf abbc 3cba d43e
000000e0: 145b 1f3f 4908 553f d6c8 80bd 68fc 57bb
000000f0: a3de 19be e3ee 35bf ece6 13bd 16b9 debd
00000100: f87a 243f a4cb 403f cb07 e93c f85f e73b
00000110: 748c d33d cecc acbd 3b4a 6fbd 0fab 81bd
00000120: e2b1 6a3e 4195 4f3e c32a cbbc 2428 803d
00000130: 7474 593c 5a6d 19bc de30 d33b f63b 083e
00000140: 81fb aa3e f438 2e3e 88b7 633a bdfc 093e
00000150: 4736 0bbe 7116 de3c 40a8 0ebc 9eba 453e
00000160: 62ae f23e 332f 613e c4f1 74bd 876c 953e
00000170: df9b a9be 1f47 63bd 50c3 d83c 30c9 a13e
00000180: 8113 053c e4ee 913d c88a b4bd 8f23 23bd
00000190: 090f 2a3e 8255 01be ec58 06bc d3d7 f83c
000001a0: f0ab 8b3c 5380 f23d 8fb9 2a3c 40e2 403e
000001b0: 2c41 3e3d 44fb 31be 0761 9bbc d191 453e
000001c0: 03c9 af3d 30be 583e 0adb 05bd 9af2 a8bd
000001d0: 221d 523d 9a90 68bf 2035 87bd 16dd 90bd
000001e0: 96e7 053c 5f63 aa3e 60c5 bfbc c678 7e3d
000001f0: ede3 a7be 82de e73e 47a6 ce3c 28e0 cf3d
00000200: dd75 763e 94ec cc3e 49d7 c93c b6bb 403d
00000210: b324 a0be 4e99 4abd 5edc c5bc d56c 91bb
00000220: d478 143f d7f1 dd3e 139d e7bc 325d 7a3e
00000230: 57ca 47be 41de 96bf 7ae8 113d 61c0 483e
00000240: 3eda b33c c1f6 f63d 1737 3fbd 0bf3 eb3c
00000250: 6395 8ebe 03f7 1cbf 050a 983b a4bb 8f3c
00000260: 4981 c83c 282e f13d 204f 3abd 73f4 e23d
00000270: 2dc3 40bd b2a1 25bf b905 823b b20f 253c
00000280: 049b 393e 4fdf ba3e 4762 7b3c 9394 dc3e
00000290: 046f d33e c85a 8fbf de7a a6bc 56eb bf3e
000002a0: cd7e 953d 8cfa 1f3f 192e 21bd c2bd 78be
000002b0: ea92 73be bb36 3e3e fc8f 00bd 950d 39be
000002c0: 18d4 833d b2ec 0e3f 07c5 a83c 439b be3d
000002d0: eee8 b23e b963 c2bc dd84 573c 15d5 653d
000002e0: e12d 803d 3bae 1b3f df2a eb3c 2948 1e3e
000002f0: 6bea 8c3e 248c 0cbf 232a 91bc 6e99 793e
00000300: 0310 5b3e b97c 9f3e 0b09 62bb 8dff 0e3d
00000310: 792f 853e 8dc0 a03e f708 11bd 001f ff3c
00000320: 43d3 893e 4bf7 c53e b819 4dbd 8a9f 70bd
00000330: 29a6 c63e d85f f5be 6347 283d 102d ffbd
00000340: c436 ce3e 1cc4 113f 8a63 b8bd 0c06 d93e
00000350: efe0 d33d 0128 84bf 003e 52bc 66d3 d93e
00000360: 8afa 8e3e 4ff6 e8be 2e95 0bbd ab22 a9be
00000370: 27eb 2b3e 79fb 9cbe 6749 00bb b170 62be
00000380: 693d 3f3e 5bbe b6be 5a58 42bd bc0c 82be
00000390: 804a b23e 05cd 81bf 49ff 35bd be32 46be
000003a0: 857c 213e a400 c8be 982a 73bd a619 74be
000003b0: 5066 223e 6d46 33bf 8c92 203b 2e7f 95be
000003c0: 35ea 423e 8d8b 823e 5c37 93bc 6dc4 5dbd
000003d0: 688a de3e 8ad5 20bf f10a aebc 18dc f6bd
000003e0: 608c 7a3e 4464 783e 3a41 24bd 92c1 87bd
000003f0: f28e 933d c6bd c8be cedd adbc b8aa dfbd
0.03343374 -0.079379134 0.017978787 -0.012594129 -0.62708557 -0.3948415 -0.02525809 0.018423192
-0.034427118 0.13955134 0.012482053 0.016046416 -0.20782802 -0.23723377 -0.013607068 -0.030680634
-0.024929382 -0.017899882 -0.005366675 -0.044483244 0.81817436 0.5937466 0.0015471388 0.013472741
0.0016584779 0.73645544 -0.0131510105 -0.0067220703 0.027161337 0.04350112 0.030187517 -0.019529793
0.07731153 0.70314425 -0.055879537 -0.38493955 0.049526084 0.0788924 0.038422316 -0.40643442
0.14026818 0.5394309 -0.03767055 -0.18781875 0.30579895 -0.56804055 -0.028199658 -0.09251897
0.5123532 0.85934216 -0.0535236 0.40778992 0.21976821 -0.40451673 -0.020973 0.41548336
0.6224835 0.8321577 -0.062883064 -0.0032956842 -0.15026335 -0.7106764 -0.036108896 -0.10875146
0.64250135 0.7531073 0.028446099 0.007061001 0.10329524 -0.08437501 -0.0584204 -0.06331455
0.2291942 0.2027178 -0.024800664 0.06257656 0.0132723935 -0.00936445 0.0064450344 0.13304123
0.33395007 0.17013913 0.0008686711 0.13475318 -0.13594924 0.02711031 -0.008707106 0.1930947
0.4739867 0.21990661 -0.05980088 0.29184362 -0.33126733 -0.05548775 0.02646032 0.31598806
0.008122326 0.07125643 -0.08815533 -0.039828833 0.16607298 -0.12630275 -0.008199912 0.03037635
0.01704976 0.11840882 0.010420217 0.18836308 0.04644887 -0.17381006 -0.018967165 0.19293906
0.08583262 0.21166301 -0.032679595 -0.082493976 0.051297314 -0.90845644 -0.0660193 -0.07073419
0.00817289 0.3327894 -0.023409545 0.062126897 -0.3279108 0.45286947 0.025225772 0.10150176
0.24068399 0.40024245 0.024638789 0.047054015 -0.31278 -0.04946261 -0.02415293 -0.0044380226
0.5799687 0.43348572 -0.028273141 0.24449614 -0.1951078 -1.1786577 0.035622098 0.19604637
0.021954652 0.12058783 -0.046683397 0.028802415 -0.27848348 -0.6131441 0.0046398663 0.017545529
0.02447571 0.11776382 -0.045485616 0.11081781 -0.047061134 -0.6469985 0.0039679674 0.010074543
0.1812554 0.36498496 0.015343255 0.43082103 0.41295636 -1.1199579 -0.02032226 0.37484235
0.07299576 0.6249168 -0.039350603 -0.24291137 -0.23786512 0.18575566 -0.031387314 -0.18071587
0.06436938 0.5582992 0.020601762 0.093069576 0.34943336 -0.023729192 0.013154236 0.056111414
0.06258751 0.6081273 0.028706966 0.15457214 0.27522597 -0.5490134 -0.017720288 0.24374935
0.21392827 0.31149843 -0.0034490253 0.03491168 0.2601278 0.31396905 -0.03540894 0.031142712
0.26918992 0.38665232 -0.050073355 -0.0587459 0.38798645 -0.47924685 0.041083705 -0.12459767
0.40276158 0.56939864 -0.090033606 0.42387426 0.10345637 -1.0324708 -0.012832165 0.42544097
0.2792552 -0.4550042 -0.034077816 -0.33034262 0.16788922 -0.30660608 -0.0019575001 -0.22113301
0.1867577 -0.35692105 -0.04744754 -0.2540034 0.34822464 -1.0140692 -0.044432912 -0.19355294
0.15770157 -0.3906299 -0.059366792 -0.23837909 0.15859342 -0.70029336 0.0024501411 -0.29198593
0.19034655 0.25497094 -0.017970733 -0.054142404 0.4346497 -0.62825835 -0.021245452 -0.12053698
0.24467611 0.24256998 -0.040101267 -0.066287175 0.07204999 -0.39207286 -0.021223929 -0.10921234

fcs1.bias f4 [256]
00000000: b539 ce3e 8cfc e13e e85b 9ebc ad0c 0b3e
00000010: 2a83 b0be 3844 9d3c c1d5 d7be 068f 08bf
00000020: d556 9fbe 7ba1 6d3e 11dc 2ebf 3638 dfbd
00000030: d6b4 d1be f409 67bf 1c1e 4ebd 50fb 60bf
00000040: 1fda 0fbf f500 c1be ff2d 84be 50d0 61be
00000050: f555 08bf ff37 87be 4a0f d5be 1fdf d63d
00000060: 43fe d4be e3c6 50bd 21c2 d8be 939d 2bbe
00000070: e83d 283f 8c5a 67be a901 0cbf d977 c1bd
00000080: e843 1dbf 7bcb c2be 5f4a 1abf 67b3 d8be
00000090: 6cbc b3be 18a7 82be 8ec3 29be c2d7 23bf
000000a0: 9216 1fbe 2a61 58bf 9e1a ab3e 6f5a a0be
000000b0: 3f79 c6be cc4b 43bf 3137 bdbe e559 54be
000000c0: 9eef 9f3d 893b d73c d0a7 15bf e73e 15bf
000000d0: 2d1e 94be d56b 03bf 3165 cb3e 9e2a be3d
000000e0: 2b53 bcbe 0243 e5be 89e6 cbbe 5a35 9cbc
000000f0: cbdf 20bf 4dff 1d3f 00c1 0dbe 262b c33e
00000100: fac0 0abf 0a59 3fbf da83 97be 21db ba3c
00000110: 0e4b c0be c0e9 b8be a4b1 273e 753a b4bc
00000120: f378 bdbe 9dd7 32be c4f4 27bf 59cc f43e
00000130: a538 c5be 0a67 05bf 77f7 7e3e 6466 f0be
00000140: 4190 35bf 1f06 f1be 5d69 91bd e4d0 1d3e
00000150: 8478 f2be 4e5c a3be 6f9f 39be 946d 22be
00000160: 8f93 1cbf 9ea8 2ebd 7dff 5bbe dbdd 1abf
00000170: fdd6 7f3e c7b4 acbe 692e 20bf 6fa4 7abb
00000180: 9fc9 5fbe 89b1 66bb 9b33 afbd 2b7a 02bf
00000190: d9a6 9e3d 4ace cebb 0801 66bf ed75 91be
000001a0: 8a12 f6be 5d13 acbd 28d5 16bf f3ac b8be
000001b0: 1ed9 c9be 54fe 2cbf a728 9ebe 9940 acbd
000001c0: 4692 2abf e50b 95be efc3 96be aa75 5abf
000001d0: d9da 95be 981e ae3e a2cf 5bbe 8f95 0f3f
000001e0: 5d78 743e 50c2 333f 1e4f 073e 164b 513f
000001f0: 520a e9ba 7ad8 12bf c8e2 3abe 81f9 863e
00000200: 1c11 053f 5c83 bf3e 7cd5 6e3d 0c10 51bf
00000210: 1705 ae3e ab2d a9be 0705 52bf ae2f 23bd
00000220: d861 efbe 6405 1d3d f6a3 86bd 7ec6 1e3e
00000230: 4363 41bf e3eb e4be ef9e b43d 79ae 33bd
00000240: 3c8f 203e 334e 253f 83a3 a93c fa24 9fbd
00000250: 1699 2d3e 13c8 103f 331c 443e 67a0 82be
00000260: abd6 94be fcb0 6f3d 9e51 0b3f f6be a5bc
00000270: 9fb0 fabe 5f03 463e 1332 a53d 23dc 263f
00000280: e5ac 813b a669 c6bd bfa7 6bbf 3592 45bd
00000290: 1b70 803d 2136 ddbe 3ab2 bfbe faca 1c3e
000002a0: 56a6 f9be ced0 0abf 0e1d 853d 904c a8be
000002b0: 58de e3bd 37dc c5be 489c ebbd af14 ffbe
000002c0: 018e 21bf 5530 1abf 0884 4fbf 49fb c83e
000002d0: c307 d1be 0300 a2be 26fe d0be 729e dabe
000002e0: f550 68bf 8e81 7b3e a85e 2c3e 2a18 c7be
000002f0: 6c39 31be c867 9fbe d178 393c b5f2 c3bc
00000300: 3b19 21bf 759d abbe e84b 353d 0267 afbe
00000310: 3d89 03bf a953 08bf 1ff3 ffbe c98f 603e
00000320: 851e 29bf c2a1 743e 1b5c c4be 4016 d2be
00000330: b164 ab3e 1485 173f 2631 813d 741d 0fbf
00000340: e14e 92be c87e a4bb 3695 ff3e b92b 3ebe
00000350: f703 22be 3b21 0d3e 9951 613d 3494 99be
00000360: cd62 d5be 7c34 41bf 5354 7dbe a24b 403e
00000370: 6263 b43c c1e9 ff3d c7df 563d b0a6 0dbe
00000380: 3c80 83be 85f7 abbe ad06 1abf 8579 e23e
00000390: aec7 50be f642 48be 9083 09bf f614 d7be
000003a0: 6410 11bf bfdc abbe 1e82 b9bd d125 283e
000003b0: 6fa6 0fbf 7a24 e53d 8ab4 2abe 3e39 763c
000003c0: a904 35bf 6839 07bf 8a64 adbe 86bc 50bf
000003d0: 8e36 28be dcf2 b3be 1758 b2be e194 e0bd
000003e0: 14cc f4be 06c5 373e 62fd 43be ba53 d8bc
000003f0: 2df1 533e a0bb 183f d8c6 afbe 6a74 52be
0.40278402 0.4413799 -0.019330934 0.13579054 -0.3447507 0.019197568 -0.4215527 -0.53343236
-0.31120935 0.23206131 -0.68304545 -0.10899393 -0.4095828 -0.9024956 -0.050321683 -0.8788347
-0.561922 -0.37696043 -0.25816342 -0.22052121 -0.5325616 -0.2640991 -0.41613227 0.10491776
-0.41600236 -0.050970923 -0.4233561 -0.16759329 0.6571946 -0.22593135 -0.54690033 -0.09446687
-0.6143174 -0.38045868 -0.6026973 -0.42324373 -0.35104692 -0.25518107 -0.16578504 -0.64001095
-0.15535954 -0.8452326 0.33418745 -0.31318995 -0.38764378 -0.7628753 -0.3695617 -0.20737417
0.07809375 0.026273506 -0.58459187 -0.58299106 -0.28929272 -0.51336414 0.3972564 0.09285472
-0.36782202 -0.44777685 -0.39824322 -0.019068409 -0.6284148 0.61717683 -0.13843155 0.38118857
-0.5420071 -0.7474524 -0.29592782 0.022809567 -0.37557262 -0.36115837 0.16376358 -0.02200053
-0.3700634 -0.17465062 -0.6560786 0.47812155 -0.3851978 -0.5211035 0.24899088 -0.46953118
-0.7092324 -0.47074983 -0.071001746 0.15411717 -0.4735757 -0.3190636 -0.18127225 -0.15862113
-0.61162657 -0.042641275 -0.2148418 -0.60494775 0.24984355 -0.33731672 -0.62570816 -0.0038244983
-0.21854256 -0.0035201034 -0.08554765 -0.50967664 0.077466674 -0.0063112127 -0.89845324 -0.28410283
-0.4806102 -0.08402131 -0.58919 -0.3606945 -0.3942346 -0.67575574 -0.3089039 -0.084107585
-0.66629446 -0.29110637 -0.2944636 -0.8533579 -0.2926853 0.34007716 -0.21465924 0.56087583
0.2387404 0.7021837 0.13213775 0.817552 -0.0017779565 -0.5736157 -0.18250573 0.2636223
0.5197923 0.37404907 0.058309063 -0.8166511 0.33988258 -0.33042654 -0.8203892 -0.039840393
-0.46754336 0.03833522 -0.06574242 0.15505406 -0.75542086 -0.44711217 0.08819377 -0.043867562
0.1567964 0.6457245 0.020707851 -0.077707246 0.16952929 0.5655529 0.19151382 -0.25513002
-0.2907003 0.058518395 0.5442141 -0.020232659 -0.48962876 0.19337223 0.080661915 0.6517965
0.003957378 -0.096881196 -0.92052835 -0.048235137 0.062713824 -0.4320536 -0.37440664 0.15311804
-0.48759717 -0.5422486 0.06499682 -0.32870913 -0.11126393 -0.38644573 -0.11504418 -0.49820468
-0.63107306 -0.6023 -0.8106084 0.39254215 -0.40826234 -0.31640634 -0.408189 -0.4269901
-0.9074853 0.2456114 0.16832983 -0.38885623 -0.17307061 -0.31133866 0.011320309 -0.023919443
-0.62929124 -0.33518568 0.044261843 -0.34258276 -0.51381284 -0.53252655 -0.49990174 0.2192985
-0.66062194 0.2388983 -0.3835152 -0.410326 0.3347526 0.59187436 0.063082024 -0.55904317
-0.28575805 -0.0050199963 0.49918526 -0.18571366 -0.15821825 0.13782208 0.05500946 -0.29995883
-0.41676942 -0.7547071 -0.24739198 0.18778852 0.022020046 0.12495757 0.052459504 -0.13833117
-0.25683773 -0.3358728 -0.60166436 0.44233337 -0.20388672 -0.19556794 -0.53716373 -0.4200818
-0.56665635 -0.33566853 -0.09058021 0.16420676 -0.5611333 0.11188598 -0.16670433 0.015028296
-0.70710236 -0.5282197 -0.33865768 -0.81537664 -0.16427061 -0.35146224 -0.34832832 -0.109658964
-0.4781195 0.17946252 -0.19139627 -0.026407111 0.2069747 0.59661293 -0.34331393 -0.20552221

fc2.weight f4 [128, 258]
00000000: ec1f fbbd a548 6f3d f02d 14bd 8836 7d3c
00000010: 983c 02bd a8cf cdbd a477 fcbc a6ed c63d
00000020: 9979 8f3d 6a61 443d 0ad1 f0bd 6210 0f3d
00000030: 41ea d2bd e7c1 babd e2bb 07be 79f0 e7bd
00000040: c30f ea38 86e5 82bd 7ebd 66bd e02e cabd
00000050: 6b3a 563c d3b2 1abd 3efa aebc c74e 983b
00000060: a880 793c 001a 0a3d 568f 6cbd d889 a13c
00000070: e24c ed3c 0e00 513b c595 69bc 64da 9dbd
00000080: 1370 bbbc d25a c7bd 6b2e 5c3d 3b2e 64bc
00000090: 3817 133d 84f3 063b ba63 113d ea8a f8bd
000000a0: cc1f 00be 0cf1 29be 6d83 37bc 0f4f 95bd
000000b0: a2c8 72bd 708b dbbd febc 233b 24f6 6fbd
000000c0: fcd7 da3d 86e1 04be aa8e 643d c95e 28bc
000000d0: c85a 14bd 531f 92bc 0c81 c4bd d972 d5bc
000000e0: 5390 253d 915d 4ebd 09ff 14ba 0552 8d3c
000000f0: c287 4c3b 1d5c cbbd 2b64 ed3c 3e06 d33b
00000100: 5c0b 9dbc ea45 25bd 8ec3 4abe 7d5c abbd
00000110: 6145 37bd c284 a6bc aa32 cebd 1489 323c
00000120: 4a65 693d c3d7 8a3c bb02 33bd ce1a 403d
00000130: d137 70bd 70be 7f3d b022 05be 57b4 a5bd
00000140: 3fa3 23bd 82ca 78bd c12c 5c3b 7fa6 af3d
00000150: e81c 01bd 0aa3 87bc 7536 27bd fbfc 093d
00000160: 683f 163d d239 cdbd d992 d9bd cebe 8b3d
00000170: abf2 3f3d 21ed a4bc 69e6 a7bd b731 bebd
00000180: 62d4 60bd 1846 1dbd 7d02 40bd 4479 ddbd
00000190: 9b08 813d c8a1 53be 8832 60bd 74cd 55bd
000001a0: 87a1 86bd daf1 b1bc b218 41bd c382 67bd
000001b0: 8071 8f3c 65e7 8fbc 66bb 413c 368a 9c3d
000001c0: fc95 26be 028e c83c 2bfe c5bd 24d3 d0bc
000001d0: 2ed7 8abc 55f0 e43c 5bb6 0e3c 4353 943d
000001e0: 0ffe e3bd 55a0 a7bd d4d6 18bd 6c9d 70bc
000001f0: 9a6c 883d efc0 abbd 1a6e c93c 3f77 03bd
00000200: 4d99 e9bd 98ea 4bbd b852 2f3d 6fd8 253d
00000210: f928 1d3c 4e84 623d d166 cbbd 915e 74bd
00000220: fdf5 ad3c 6214 c7bc cb7f 333d 2ed0 623d
00000230: c149 4a3c 2d5e 443d b55a 17be fe07 6cbd
00000240: 680a 663d 161d 29bd 1f22 253d 7221 bf3b
00000250: a8b5 243d bd1d 5fbd d5cb 01bd d57b c1bc
00000260: 5753 08be 8bd0 89bd 74c0 d0bc 2199 113d
00000270: 9a17 493c 500c 61bd 0173 8ebd 3fb4 b43a
00000280: 3958 23be 27af 0d3d c2ae 253d 7ca9 4f3d
00000290: 3192 3c3d 9b4e 57bc 262c 05be 8579 fa3c
000002a0: 4d4c 8c3d 112f fc3c 7fa1 643b d668 63bd
000002b0: b095 5e3b 19b1 c3bd a3eb d0bd 28f7 513d
000002c0: a06f cebd 5ffc 88bc 5915 10be 19b3 cfbd
000002d0: 4030 93bd 6336 ce3c 8fd8 eebc 4e2a 83bd
000002e0: 5d79 8f3c 079d 5a3c 1823 73bc 37ef 933c
000002f0: 7cf0 a3bd 17a4 9bbd 0f2e 633d 87c4 7cbb
00000300: 1626 d63c e53a c63c 9bff b4bc eff3 08bb
00000310: 236a 213d 6693 a9ba 4acb 70bd cd15 90bc
00000320: fad6 f2bc ac27 f6bd 5700 c73b e180 273d
00000330: 781d 573d 6b14 103d 5983 66bd c687 ef3c
00000340: 7c0e c0bb 6e8b c9bc f2cd 69bb 2c8c 16be
00000350: bd7c 8bbd e2a8 93bd bba4 3cbd db04 b7bd
00000360: ea3e f43c d496 0dbb 10b9 c2bd 1866 3f3c
00000370: d427 96bd b890 03bd ebf5 303d 8805 ab3d
00000380: 34d7 ed3d e2fe a1bd b90a 36be 97ed 243d
00000390: f9e6 043d 0449 ba3c 1b84 53bd 9341 773c
000003a0: cc86 cf3c 44c5 24bc e10f b9bc 43cb 6dbd
000003b0: 822c 67bd 068e 0f3d 3b74 babd 48ab 6c3d
000003c0: ac08 673d f0cf aebd 0881 543d d410 6fbd
000003d0: ff07 71bd 3208 90bc 471c 76bd fc2d 573d
000003e0: e9f5 09bb 28cc 6ebd d59f 08be 95be 09be
000003f0: 7950 9abd 1bad 35bd 959a d3bd e888 2abc
-0.12261948 0.05841889 -0.036176622 0.015454896 -0.031796068 -0.10049373 -0.030818768 0.097132966
0.07005615 0.047944464 -0.11758621 0.034927733 -0.10298587 -0.09119015 -0.13255265 -0.113251634
0.00011160925 -0.06391434 -0.056333058 -0.09872222 0.013075451 -0.037768196 -0.02135956 0.004648063
0.015228428 0.0337162 -0.057753883 0.01971905 0.028967325 0.0031890902 -0.014256899 -0.0770767
-0.02288059 -0.097341195 0.053755205 -0.013927038 0.035910815 0.0020591924 0.035495497 -0.12135871
-0.1251213 -0.16595858 -0.011200768 -0.0729047 -0.05927337 -0.10719955 0.0024984474 -0.058584347
0.10685727 -0.12976655 0.055800118 -0.010276505 -0.03621939 -0.017837202 -0.09594926 -0.02605574
0.04042084 -0.0503822 -0.0005683755 0.017251024 0.0031208848 -0.099296786 0.028978428 0.006439953
-0.019170456 -0.04034988 -0.1980116 -0.0836725 -0.0447439 -0.020326976 -0.10068257 0.01089694
0.056981362 0.016948586 -0.043703776 0.046900563 -0.05864698 0.062437475 -0.13001513 -0.08091038
-0.039950605 -0.06074 0.0033596011 0.085766785 -0.031521708 -0.016557235 -0.04082342 0.033688527
0.036681563 -0.10020794 -0.10623712 0.068235025 0.046862286 -0.020132603 -0.08198244 -0.09286826
-0.054890044 -0.038396925 -0.046877373 -0.10814145 0.063004695 -0.20667183 -0.05473569 -0.05219789
-0.06573778 -0.02172177 -0.047142692 -0.05652119 0.017510176 -0.017566392 0.011824464 0.07643549
-0.16268152 0.024481777 -0.09667619 -0.025491305 -0.016948309 0.02794663 0.008710469 0.072424434
-0.11132442 -0.08184878 -0.03731425 -0.01468597 0.06661339 -0.083864085 0.024588633 -0.032096144
-0.11406193 -0.049784273 0.042803496 0.04048961 0.009592288 0.055301957 -0.0993172 -0.059660498
0.02123546 -0.024301711 0.043823045 0.055374317 0.012346686 0.047941376 -0.14780696 -0.05762481
0.056162268 -0.041287504 0.040315744 0.0058328444 0.040212303 -0.05447172 -0.03168853 -0.023618618
-0.13313042 -0.067292295 -0.025482394 0.035546426 0.012273693 -0.054943383 -0.06955529 0.0013786628
-0.15951623 0.034590866 0.040449865 0.050698742 0.046037856 -0.0131413 -0.13005123 0.030575523
0.06850491 0.030784162 0.0034886298 -0.0555199 0.0033963732 -0.09555263 -0.10201194 0.051261097
-0.100798845 -0.016721902 -0.14070643 -0.10141582 -0.07186937 0.025172418 -0.029155998 -0.06404553
0.017513925 0.013343102 -0.01483991 0.018058402 -0.08004853 -0.07599657 0.055463847 -0.0038569288
0.026141208 0.024198005 -0.022094538 -0.002089735 0.03940786 -0.0012937605 -0.05878762 -0.01758852
-0.029643524 -0.120192856 0.0060730386 0.040894393 0.052518338 0.035175722 -0.056277607 0.029239547
-0.0058611017 -0.024602618 -0.0035675731 -0.14701909 -0.06810901 -0.07209946 -0.046055537 -0.08936473
0.029815156 -0.0021604793 -0.09507954 0.011682056 -0.07331815 -0.032120436 0.043203276 0.083506644
0.11613312 -0.07909943 -0.17777528 0.040265646 0.032446835 0.022739895 -0.051639657 0.015091318
0.02533283 -0.010056797 -0.02259058 -0.058055174 -0.05643893 0.035047553 -0.091042005 0.057780534
0.056404755 -0.08535755 0.051880866 -0.058365658 -0.058845516 -0.017582033 -0.06008556 0.05253409
-0.0021051115 -0.058300167 -0.13342221 -0.13451608 -0.0753488 -0.04435454 -0.103322186 -0.010408618

fc2.bias f4 [128]
00000000: 4620 02bc 816a ebbc 5566 c43e e02b 87be
00000010: 53b2 bdbd d587 8ebd 59a3 243e 3996 c6bd
00000020: 5c97 aabd c2d4 f3bd 1cb5 00be 51a9 3abd
00000030: 2c3e 3bbd c39e fcbc da76 6e3e 5ac1 dabd
00000040: e095 e1bd bae0 f9bd dafe d2bc 4da6 d5bc
00000050: aab6 74bc eec0 f13d 69b9 0bbd ef79 953d
00000060: 4b9d 8ebd a756 83bd 71f5 00be 8e76 9bbd
00000070: 4537 0bbd 173b b7bc 1dc6 c1bd 7c97 f9bd
00000080: b000 db3c d8bc b9bd 1cb5 2bbe 9b0b 6a3b
00000090: 73da ddbd 951f 27bd 4525 f0bd bbd5 f6bd
000000a0: 83be 8cbd 688d c33e 32da 9dbd a0ec a3bd
000000b0: 3999 f7bc 31cb 5bbd ec07 c6bc 2aa8 16be
000000c0: 79b3 6cbc 2cc7 e73d 9fb9 d2bd eac4 36bf
000000d0: 854b d43e 1ed0 5bbd b886 7dba dc49 cfbc
000000e0: 283f 2bbd 1c1f fb3d 66db e8be e617 53bd
000000f0: e744 f5bd 00a1 e73c 7072 93bc b2a1 b2bc
00000100: cd2c dbbd 68b0 09be 9431 49bd da72 463e
00000110: 109e 88bd 46fc 6e3b 7ef7 b3bd 7844 dcbc
00000120: 2648 e6bd b9ba db3d 3d36 9fbe af56 103d
00000130: 623c 25bc 704d 2abd 855b 5ebd 2a20 463e
00000140: 7509 c4bc 8690 6bbd ca34 87bd ce9e c5bc
00000150: f870 21bd ede9 a0bd 6873 3b3b e25d 76bd
00000160: f102 6ebd b26d 1fbd 87ed f2bd 8c6d 9dbd
00000170: 857b 6bbe 554e 41bd efed 263d f3ab 0bbe
00000180: 726e 0abe 0a66 bdbd df4e 1dbe b311 a3ba
00000190: 2872 c6bd 3bd2 bb3b aa39 cbbd b577 74bd
000001a0: fac0 39bd 0f9f 80bd 5703 dbbd 2719 65bd
000001b0: 0c64 453d 135b 3fbd 8ed5 0d3e ab45 e03d
000001c0: 03e1 1b3d 50df d5bd 325f 053e 5f4d d4bd
000001d0: ca9c 0fbd e00a 39bd cdec 9dbd 73d0 d9bd
000001e0: bb43 c2bd 16ea 0cbe 1cdb 80bd b53c a3bd
000001f0: 9da7 0e3b 28fa 9abc b47d 19be ab04 4dbc
-0.007942265 -0.028737308 0.38359323 -0.2640066 -0.09262528 -0.06959502 0.16077937 -0.096966214
-0.08329651 -0.11905815 -0.12569088 -0.04557163 -0.04571359 -0.030837422 0.23287526 -0.1068141
-0.110149145 -0.12201066 -0.025756288 -0.026080275 -0.014936129 0.118043765 -0.034112368 0.072986476
-0.06963595 -0.06413012 -0.12593628 -0.07590972 -0.033988256 -0.022367043 -0.09461615 -0.121870965
0.026733726 -0.09069222 -0.16768306 0.0035712484 -0.108326815 -0.040801603 -0.117258586 -0.120524846
-0.06872275 0.38193822 -0.07707633 -0.08004117 -0.03022443 -0.053660575 -0.0241737 -0.14712587
-0.0144470865 0.11317286 -0.10289311 -0.71394217 0.41463867 -0.053665273 -0.0009671259 -0.025303774
-0.041808277 0.12261793 -0.45479888 -0.051536463 -0.11976033 0.028275013 -0.017998904 -0.021805618
-0.107019044 -0.134462 -0.049119547 0.1937975 -0.06670773 0.0036466285 -0.0878744 -0.026888117
-0.1124423 0.10728974 -0.31096068 0.035238918 -0.010085197 -0.041577756 -0.0542865 0.19348207
-0.02393029 -0.057510875 -0.066018656 -0.024123576 -0.039414376 -0.07857118 0.0028602723 -0.060148127
-0.058108274 -0.038922973 -0.11861711 -0.0768691 -0.22996338 -0.047193844 0.040754255 -0.13639812
-0.13518694 -0.09247978 -0.15362118 -0.0012441188 -0.09689742 0.0057318485 -0.09923108 -0.059684474
-0.045350052 -0.06280338 -0.106939964 -0.05593219 0.048191115 -0.046717715 0.13850996 0.10950788
0.038056385 -0.10442984 0.13024595 -0.1036632 -0.035061635 -0.045176387 -0.07711182 -0.10635462
-0.09485575 -0.13761172 -0.06291792 -0.07970563 0.0021767386 -0.018918112 -0.14989358 -0.01251332

fc3.weight f4 [1, 128]
00000000: 7cf4 1e3b 23ea 2cbc c1c3 53bc 152b f9bc
00000010: f3db 6b3c 514b 9039 27b3 80bc 0e72 da3b
00000020: f804 da3b 76bc b0bc 40f5 4a3b 8c6a 033c
00000030: 66a3 893c 3150 5a38 68fc 03bd fdd7 a4bc
00000040: bed9 a93c bc71 99bc fe1b c83b f956 8abc
00000050: dc6f 2b3c 9b1c 71bd 15b3 183c 400b 9e3c
00000060: 7b2c 9dbc a5c8 8e3c 66ab b6bc 6e50 08ba
00000070: 6e3c 16bc bc32 8d3b 3c25 033a 0730 0f3d
00000080: 44f0 ca3c e037 783b dd6d 95bc 6528 4d3c
00000090: 49b5 41bd e84d ff3c 44d9 44bd dd23 0ebc
000000a0: 1656 ebbb cfc2 9dbc f249 ddbb 818e 39bc
000000b0: 40a2 693c e774 96bb 629d 13bc 9fd8 953c
000000c0: 3ff1 8d3c 2d54 21bc 21f7 3f3c 3a75 da3c
000000d0: 2375 b93c 1841 a1bd 2654 883c b7c2 233c
000000e0: a064 f53c 5c36 d53b df9d de3c c42c 2f3c
000000f0: 9050 b7bc d12e 383c f3ef 793a 550e 433d
00000100: d820 40bd cd63 4f3a d95a 9cbb c33c 2cbc
00000110: 358d 713b 19f8 1fbc 0622 43bc b27f d9bc
00000120: 4dc5 74bc 41c6 38bd b192 733c e592 463d
00000130: 21b4 07bb fd9e 9dbc cd8d fe39 6ca9 5fbc
00000140: 2d37 963c 4050 383d 704b 273c a11b 963b
00000150: 39fe 223d 2977 41bb 8af0 2fbd 3398 163c
00000160: d56c 97bc 25c2 9bbc f86d 16bb 2f44 dcbc
00000170: a24e 27bd b911 41bb cab7 11bc 8635 75bb
00000180: 3787 973c 2b35 5f3c 598d 65bc f852 933c
00000190: e3e7 a5bb 6c77 103c 77f8 b8bb f3e5 a1bb
000001a0: fa0e abbc 90e8 0cbc 6692 bebc 561f 023c
000001b0: 666c 81bc 952b 0d3b dd15 783c 8efb 683c
000001c0: 37f8 f8bc 89b0 67bc 7547 843c 5ad0 793c
000001d0: 54cd f23c 0d1a 3ab9 daef 323c 7963 283c
000001e0: 244c 013a f3f4 c9bc 82a4 b8bc 6255 c439
000001f0: 13fe 573c dad3 cabc ce86 f637 f2a7 71bc
0.002425461 -0.010553869 -0.012925089 -0.03041605 0.014395702 0.00027521935 -0.015710426 0.0066664284
0.0066534244 -0.02157424 0.0030968934 0.008021008 0.016801547 5.2049934e-05 -0.032223135 -0.020122522
0.02073371 -0.01873099 0.0061068526 -0.016887175 0.010463681 -0.05886517 0.00932004 0.019292474
-0.019186249 0.01742966 -0.022298526 -0.0005199973 -0.009169681 0.0043090265 0.0005002802 0.03495791
0.02477277 0.00378751 -0.018240863 0.012521838 -0.047292028 0.031165078 -0.048058763 -0.008675543
-0.007181893 -0.019257931 -0.0067531997 -0.0113254795 0.014259875 -0.0045915726 -0.009009691 0.01829177
0.01732695 -0.009846729 0.011716635 0.026667226 0.022638863 -0.07873744 0.016641688 0.009995154
0.029955208 0.0065067243 0.027174888 0.010691825 -0.022377282 0.011241631 0.00095343514 0.04762109
-0.046906322 0.0007911295 -0.004771572 -0.010512534 0.0036857848 -0.009763741 -0.011909967 -0.026550148
-0.014939618 -0.045110945 0.014866517 0.048479933 -0.002070673 -0.01924085 0.00048552305 -0.013651233
0.018336857 0.044998407 0.010210857 0.0045809303 0.039793227 -0.0029520488 -0.042954005 0.009191561
-0.018484512 -0.019013474 -0.002295373 -0.026887981 -0.040846474 -0.0029460026 -0.008893916 -0.0037415936
0.018497093 0.013623516 -0.014010751 0.017983899 -0.0050630434 0.008817535 -0.0056448537 -0.004940742
-0.020881165 -0.008600369 -0.023263168 0.007942041 -0.015798759 0.002154087 0.015141931 0.014220132
-0.030391796 -0.01414121 0.016147355 0.015247429 0.029638924 -0.00017748047 0.010921443 0.010277622
0.00049323053 -0.024652934 -0.022539381 0.00037447648 0.013183135 -0.024759222 2.9388259e-05 -0.014749514
