checkpoint_critic1.pth (torch_old, 159714 bytes, 5 tensors)

fcs1.weight f4 [256, 24]
0.29115656 0.0070824428 0.024078006 0.054690633 -0.41769204 -0.12338998 -0.056610208 0.06415295
0.4420544 -0.13693427 0.0016002787 -0.06650532 -0.25950816 0.2845272 -0.03395163 -0.04875558
0.5544947 -0.045433175 -0.024286201 0.26892108 0.20572 0.46993512 0.0053272457 0.21319747
0.18038824 0.11122977 0.03347749 -0.08699599 0.18325448 -0.40743488 -0.013994846 -0.045372847
0.20207499 -0.05432119 0.034612566 0.05886378 -0.16466498 0.059456598 -0.023967035 -0.009658979
0.26515204 -0.07788192 -0.030579431 0.04305408 -0.80466586 0.2708156 0.031481907 -0.012102767
0.2954786 0.20452872 0.041568875 -0.012814924 -0.49392328 -0.12581809 0.032783914 0.039002452
0.3363233 0.23206334 0.035144597 -0.0642773 -0.21802005 0.008212118 0.11089924 -0.07405187
0.442024 0.2029222 -0.023494055 0.0138826845 0.1447007 0.26650628 -0.03085161 0.060344912
0.19117022 -0.030556493 -0.076870464 -0.0035992758 0.14430352 -0.31220746 -0.04927389 -0.010158363
0.25923297 0.03095393 -0.0004031863 0.06832639 0.17749959 -0.053178966 -0.05184158 0.026153823
0.26302952 0.03644692 0.056364812 0.15857314 0.6823517 -0.42525104 -0.027081512 0.20974478
0.12320391 0.3340805 -0.0045689065 -0.26457998 -0.18792559 -1.279018 0.017189637 -0.2900141
0.24090289 0.11599499 -0.034623593 -0.1376861 0.06552852 -0.539237 -0.036106735 -0.10129879
0.25615036 0.056976687 0.01486408 -0.20808001 0.56644523 -0.5854089 -0.00347768 -0.16831744
0.3949261 0.31323117 -0.016009308 -0.20192207 0.1938413 0.4383269 -0.035504397 -0.19900665
0.3267915 0.41806817 -0.10109236 -0.010571636 -0.0018838908 0.04538101 -0.044061188 0.10135992
0.1821654 0.5080497 0.0027412858 -0.0390821 -0.3237121 -1.1011412 -0.006298861 0.048408635
0.07333791 0.4825989 -0.018108737 -0.17213368 0.119476974 -0.58884823 0.013064279 -0.1696242
0.23481919 0.5278163 0.097308606 0.03841086 -0.027240185 -0.4014817 0.0056360164 -0.005600399
-0.03384246 0.3750735 -0.007640578 0.16058242 -0.4769871 -0.6447097 -0.010586708 0.14016335
0.2579849 -0.23053682 -0.02172887 0.048462488 -0.32629776 -0.68751997 0.028128492 0.1576474
0.37715265 -0.2057005 -0.033094466 0.20251302 -0.43432477 -0.23457558 0.024598455 0.121825814
0.43726277 -0.14267269 0.02342619 -0.018191 -0.4594274 0.46824485 0.004669508 -0.07460821
0.12137355 0.024473777 -0.043756437 0.0032074212 -0.14031744 -0.33426157 -0.018960161 -0.090810075
0.10013884 -0.14276381 -0.020574514 0.076748356 -0.26268145 -0.16747805 -0.023332864 0.05694579
0.1598483 -0.118886426 -0.026232686 0.022070164 -0.31418014 -0.48594737 -0.04558791 0.029682681
0.19093807 0.097767696 0.026667882 0.16763249 -0.539777 -0.24668118 -0.06627726 0.18855916
0.2902625 0.169915 -0.026386816 0.028182486 -0.23545353 -0.021345126 -0.096194744 -0.03158675
0.55356795 0.24150491 0.0055546877 0.26140976 0.095934406 0.18803224 -0.0783844 0.22805734
-0.09225964 0.10668049 0.021390202 -0.0042881994 0.58155006 0.037219863 -0.049949057 -0.01413564
0.23686598 -0.13772105 -0.048722405 0.0022005087 0.21860956 0.28305098 0.018643063 0.040280323
00000000: 7912 953e d613 e83b 3d3f c53c 4903 603d
00000010: bbdb d5be e3b3 fcbd 1be0 67bd 9f62 833d
00000020: f454 e23e 7f38 0cbe 71c0 d13a f133 88bd
00000030: 41de 84be 8dad 913e dd10 0bbd eeb3 47bd
00000040: 5df3 0d3f 2318 3abd dbf3 c6bc 06b0 893e
00000050: 44a8 523e 569b f03e 2d90 ae3b 7050 5a3e
00000060: b2b7 383e 6fcc e33d b11f 093d f42a b2bd
00000070: 10a7 3b3e 4e9b d0be a34a 65bc e1d8 39bd
00000080: bfec 4e3e e57f 5ebd e8c5 0d3d 261b 713d
00000090: f09d 28be c388 733d 8456 c4bc b240 1ebc
000000a0: 02c2 873e 8e80 9fbd b781 fabc 7a59 303d
000000b0: 95fe 4dbf 58a8 8a3e 2cf3 003d af4a 46bc
000000c0: f948 973e fa6f 513e 2044 2a3d b0f5 51bc
000000d0: 83e3 fcbe 75d6 00be 6d48 063d 09c1 1f3d
000000e0: 9132 ac3e 03a2 6d3e c8f3 0f3d d1a3 83bd
000000f0: a640 5fbe 1f8c 063c 241f e33d 82a8 97bd
00000100: f850 e23e d6ca 4f3e 9b76 c0bc 3374 633c
00000110: 6c2c 143e 8373 883e 84bc fcbc 3a2c 773d
00000120: 20c2 433e 9c51 fabc 436e 9dbd d4e1 6bbb
00000130: 4dc4 133e a8d9 9fbe 6bd3 49bd 436f 26bc
00000140: 2fba 843e 1993 fd3c c062 d3b9 b5ee 8b3d
00000150: 74c2 353e 30d2 59bd d657 54bd 8b40 d63c
00000160: ceab 863e 5e49 153d cade 663d ff60 223e
00000170: 9aae 2e3f 81ba d9be 0cda ddbc 56c7 563e
00000180: 5552 fc3d 990c ab3e c4b6 95bb 0777 87be
00000190: 916f 40be ddb6 a3bf 48d1 8c3c ba7c 94be
000001a0: 3faf 763e c88e ed3d 78d1 0dbd 96fd 0cbe
000001b0: d133 863d 700b 0abf a8e4 13bd bd75 cfbd
000001c0: 2426 833e 6360 693d 7888 733c ed12 55be
000001d0: 8e02 113f 5cdd 15bf cae9 63bb 685b 2cbe
000001e0: c133 ca3e d65f a03e f425 83bc a9c4 4ebe
000001f0: 557e 463e 626c e03e 0f6d 11bd 66c8 4bbe
00000200: 3751 a73e 080d d63e 8309 cfbd a834 2dbc
00000210: e3ec f6ba 70e1 393d 8179 34bd ca95 cf3d
00000220: 9189 3a3e 8c0f 023f 25a7 333b 8d14 20bd
00000230: 98bd a5be 32f2 8cbf ad66 cebb 2248 463d
00000240: 3032 963d 3417 f73e c658 94bc d043 30be
00000250: 58b0 f43d c2be 16bf 8f0b 563c f7b1 2dbe
00000260: 7174 703e f81e 073f bc49 c73d b554 1d3d
00000270: cf26 dfbc 028f cdbe 55ae b83b 8d83 b7bb
00000280: 649e 0abd a209 c03e d05d fabb b86f 243e
00000290: a737 f4be b20b 25bf df73 2dbc fb86 0f3e
000002a0: 9916 843e d811 6cbe be00 b2bc 9a80 463d
000002b0: 8010 a7be 4f01 30bf b96d e63c 526e 213e
000002c0: 271a c13e 27a3 52be 108e 07bd 935f 4f3e
000002d0: d15f debe 9534 70be b382 c93c d07f f93d
000002e0: e8e0 df3e ca18 12be 48e8 bf3c 4b05 95bc
000002f0: 113a ebbe cabd ef3e ac02 993b 30cc 98bd
00000300: b292 f83d 3b7d c83c f339 33bd 9933 523b
00000310: 60af 0fbe 5524 abbe 5752 9bbc a2fa b9bd
00000320: 9815 cd3d ad30 12be e28b a8bc 3e2e 9d3d
00000330: 2f7e 86be 5e7f 2bbe 9024 bfbc fd3f 693d
00000340: 46af 233e ba7a f3bd eee5 d6bc 7dcc b43c
00000350: 38dc a0be 18ce f8be 63ba 3abd 1829 f33c
00000360: 4585 433e 6e3a c83d 9a76 da3c daa7 2b3e
00000370: d32e 0abf fe99 7cbe 5fbc 87bd a715 413e
00000380: 499d 943e 33fe 2d3e 2a29 d8bc f5de e63c
00000390: bb1a 71be f9db aebc c001 c5bd 1c61 01bd
000003a0: a1b6 0d3f 104d 773e 1904 b63b 80d7 853e
000003b0: 4279 c43d 868b 403e 0088 a0bd dd87 693e
000003c0: 9ff2 bcbd 4d7b da3d 813a af3c 0684 8cbb
000003d0: 77e0 143f db73 183d 6297 4cbd 2c99 67bc
000003e0: ff8c 723e bf06 0dbe 2591 47bd 6936 103b
000003f0: 2fdb 5f3e 0fec 903e 56b9 983c fbfc 243d

fcs1.bias f4 [256]
-1.115089 -0.83205235 -0.144622 -0.88310134 -0.6741248 -0.050223958 -0.18349594 0.03823608
-0.7816122 -0.81138736 -0.45557955 0.23342927 -0.13279286 -0.88331014 -0.61501867 -0.0383824
-0.21001351 0.23800646 -0.5668569 0.1910831 0.18955307 -0.47489384 -0.6918087 0.1680755
0.14948033 -0.40367863 0.007333142 -0.43072146 -0.43256956 -0.061805125 0.011343985 -0.46778536
-0.3305169 -0.15467963 0.196511 -0.47774452 -0.46794036 -0.041031975 -0.021023156 -0.22268161
-0.17156407 -0.40829334 -0.31129202 -0.15044227 -0.37342197 0.10147554 -0.43858567 0.38326472
-0.005249318 -0.46181256 -0.105328344 -0.6570375 -0.5427256 0.15550046 -0.2901219 -0.44982454
-0.17007422 -0.096163675 0.05096474 -0.04770914 0.17216633 -0.30155677 0.089928955 0.14489482
-0.25953376 -0.19367905 -0.29325172 -0.28054258 -0.11183942 -0.8857261 0.04075455 -0.009055616
0.059308913 -0.34660456 -0.062132977 -0.65510255 0.014371803 -0.16058649 -0.12758406 -0.124701865
-0.2019349 0.1343627 -0.09127306 -0.18528342 -0.14434107 -0.16956887 0.5030911 -0.30024055
-0.066233456 -0.46194583 -0.22025041 -0.27565548 -0.951852 -0.5274798 0.3775921 -0.21678847
-0.27416548 -0.23400499 -0.45827016 0.14515296 -0.14269477 0.29229894 -0.26479033 -0.48948708
-0.4621773 -0.13500458 -0.07618989 -0.5362993 -0.3839865 -0.2554387 -0.71649 -0.17492652
-0.07961151 -0.100914985 0.43140548 -0.053474832 -0.019916188 -0.6631273 -0.32258967 0.32150018
-0.51999605 0.041878708 0.036612745 0.10640103 -0.023183823 -0.5113223 -0.35143694 -0.0017331067
-0.4267951 -0.6918726 -0.5929299 0.17374603 -0.12771711 -0.88692683 0.3877907 -0.10288206
0.4201298 -0.4148399 -0.04558695 -0.6646402 -0.34380895 -0.3906528 -0.59859383 -0.4088127
-0.34498754 0.3030417 -0.51397943 0.09840677 0.22268356 -0.46936527 -0.43515426 -0.19198638
-0.4449487 -0.03835666 0.39332718 -0.30648643 -0.35361686 0.095194615 -0.56546354 -0.19395402
-0.061729267 -0.49856418 -0.44656226 -0.28516126 -0.36688173 -0.15851986 0.07573827 -0.54090446
-0.30578557 -0.71911794 0.2953329 -0.2795675 -0.19743825 -0.21329857 -0.44802663 0.3173467
-0.2548619 -0.29779628 -1.050713 -0.4148578 -0.36170205 -0.5871405 -0.19043621 -0.5115089
-0.15586261 -0.700781 -0.50757813 -0.31041476 0.20010686 -0.052282095 -0.025015466 0.14371602
-0.20983107 -0.8829892 -0.10852151 -0.08434741 -0.121212594 -0.38387716 0.29072782 -0.120003864
0.10469856 -0.21581124 -0.2122169 -0.35876292 0.23447743 -0.019041236 -0.41937417 -0.1952516
0.069610804 0.071210176 -0.35328695 -0.2031899 -0.35966077 0.21266259 0.3539841 -0.24906991
-0.15390931 -0.18230635 -0.14642498 -0.5167244 0.10836872 0.15377697 -0.2272249 -0.08817675
-0.64184713 0.12612817 -0.15993361 0.21598206 0.003959312 0.07105621 0.1488345 -0.46370566
-0.100417025 -0.24758275 0.21485695 -0.25952923 0.009424437 0.30383804 -0.19189465 0.15072303
-0.5112351 -0.45774043 -0.3138809 -0.29337603 -0.13115475 -0.06188522 -0.35445344 -0.19203058
0.28329083 0.33917433 -0.4531736 0.20818594 -0.79040694 -0.31989425 -0.5559578 -0.8088811
00000000: 3dbb 8ebf 6201 55bf ca17 14be ee12 62bf
00000010: 7193 2cbf a3b7 4dbd 5ce6 3bbe 709d 1c3d
00000020: bd17 48bf 15b7 4fbf b941 e9be 1508 6f3e
00000030: dafa 07be 9d20 62bf dd71 1dbf dd36 1dbd
00000040: c80d 57be f7b7 733e 891d 11bf 4aab 433e
00000050: 331a 423e 4925 f3be 601a 31bf fc1b 2c3e
00000060: 5f11 193e f7ae cebe db4a f03b 8687 dcbe
00000070: c279 ddbe 5f27 7dbd 1fdc 393c 9081 efbe
00000080: 8339 a9be 5664 1ebe 2e3a 493e ee9a f4be
00000090: e195 efbe 2511 28bd c138 acbc a606 64be
000000a0: 7eae 2fbe d30b d1be ab61 9fbe 8a0d 1abe
000000b0: 2a31 bfbe 68d2 cf3d 4d8e e0be 463b c43e
000000c0: 7902 acbb b272 ecbe 63b6 d7bd 9c33 28bf
000000d0: 11f0 0abf 833b 1f3e dc8a 94be 674f e6be
000000e0: f027 2ebe 76f1 c4bd 67c0 503d a96a 43bd
000000f0: 5f4c 303e a665 9abe ac2c b83d 4f5f 143e
00000100: 9ce1 84be cd53 46be 1725 96be 47a3 8fbe
00000110: 110c e5bd f2be 62bf 3eee 263d 025e 14bc
00000120: e7ed 723d 2776 b1be 267f 7ebd cdb4 27bf
00000130: b677 6b3c c970 24be 65a5 02be b163 ffbd
00000140: 06c8 4ebe 6096 093e 5fed babd f0ba 3dbe
00000150: 25ce 13be 76a3 2dbe 94ca 003f 21b9 99be
00000160: 68a5 87bd 2a84 ecbe 5389 61be b722 8dbe
00000170: 93ac 73bf eb08 07bf c053 c13e ccfd 5dbe
00000180: 6b5f 8cbe 019f 6fbe 63a2 eabe faa2 143e
00000190: 941e 12be 35a8 953e 9992 87be 0d9e fabe
000001a0: 81a2 ecbe a43e 0abe 7209 9cbd e94a 09bf
000001b0: e199 c4be dcc8 82be e36b 37bf f01f 33be
000001c0: 5c0b a3bd 84ac cebd 2ee1 dc3e 6d08 5bbd
000001d0: 4627 a3bc b6c2 29bf 792a a5be ac9b a43e
000001e0: 761e 05bf 0289 2b3d 3ff7 153d c9e8 d93d
000001f0: 00ec bdbc 05e6 02bf 8bef b3be 6929 e3ba
00000200: e384 dabe 901e 31bf 41ca 17bf 7bea 313e
00000210: 46c8 02be a30d 63bf 818c c63e d4b3 d2bd
00000220: 411b d73e e565 d4be 62b9 3abd dc25 2abf
00000230: ba07 b0be a503 c8be 723d 19bf e64f d1be
00000240: 35a2 b0be 4828 9b3e 2894 03bf 7d89 c93d
00000250: 2907 643e a550 f0be 8acc debe 1498 44be
00000260: 51d0 e3be e01b 1dbd 2e62 c93e caeb 9cbe
00000270: 450d b5be 65f5 c23d 38c2 10bf e29b 46be
00000280: d4d7 7cbd ce43 ffbe cfa3 e4be a800 92be
00000290: ecd7 bbbe 0853 22be ab1c 9b3d b778 0abf
000002a0: ed8f 9cbe 1d18 38bf e035 973e 7923 8fbe
000002b0: 412d 4abe f16a 5abe bf63 e5be 447b a23e
000002c0: 427d 82be c178 98be c37d 86bf 3e68 d4be
000002d0: 0331 b9be d74e 16bf b601 43be 3ff2 02bf
000002e0: 739a 1fbe 6266 33bf a4f0 01bf afee 9ebe
000002f0: d0e8 4c3e c025 56bd 3ced ccbc 4b2a 133e
00000300: f5dd 56be 950b 62bf 8740 debd 56be acbd
00000310: 4f3e f8bd 8c8b c4be 47da 943e 96c4 f5bd
00000320: 336c d63d 9ffd 5cbe 634f 59be c6af b7be
00000330: da1a 703e 5efc 9bbc 36b8 d6be 09f0 47be
00000340: 1c90 8e3d a4d6 913d 07e2 b4be 0311 50be
00000350: 7525 b8be 39c4 593e 673d b53e 2f0c 7fbe
00000360: 679a 1dbe 84ae 3abe 6ef0 15be 0d48 04bf
00000370: 6bf0 dd3d b677 1d3e a5ad 68be 0396 b4bd
00000380: 1850 24bf be27 013e a3c5 23be 672a 5d3e
00000390: 1ebd 813b eb85 913d 1268 183e d46a edbe
000003a0: 71a7 cdbd 5586 7dbe 7603 5c3e 04e1 84be
000003b0: f468 1a3c a990 9b3e 0880 44be 2357 1a3e
000003c0: 4ee0 02bf f45c eabe ffb4 a0be 6235 96be
000003d0: 6e4d 06be 5b7b 7dbd ec7a b5be aaa3 44be
000003e0: 7f0b 913e 42a8 ad3e 5f06 e8be b22e 553e
000003f0: 1c58 4abf 2ec9 a3be 4053 0ebf d512 4fbf

fc2.weight f4 [128, 258]
0.013773851 -0.023048451 0.045238517 0.099727 0.058707464 0.055425484 -0.017937915 0.03263101
-0.07197534 0.002254562 0.07365274 0.004982045 -0.14104515 -0.09791018 -0.0068860687 -0.04057697
-0.015218792 0.072611 0.029872162 0.018010352 -0.017159997 0.01054608 -0.036532316 0.033701006
0.06870955 -0.029429715 0.044234075 -0.08988178 -0.024545318 -0.062759414 -0.06106617 -0.008012786
-0.042423442 -0.05632288 -0.027128045 -0.055754233 0.07451179 0.009658778 -0.08412277 -0.07940248
-0.06910582 -0.0037202693 -0.08270293 -0.036861364 0.024123898 -0.0737297 0.0049100774 -0.056534626
-0.07083488 0.068946496 0.043520126 0.005179107 0.048111152 -0.078574374 -0.027351065 -0.06265887
-0.054178275 -0.00064380193 -0.019283194 0.033578947 0.03609073 -0.049776174 0.023362555 0.03008219
-0.031647783 -0.043352563 -0.06144082 -0.022265539 -0.025255425 -0.04907741 0.006827366 -0.021689765
-0.13013709 -0.019271383 -0.053638466 -0.0547296 -0.004090011 -0.025013907 -0.029000212 -0.021123676
0.00035884892 0.056029715 -0.12986605 -0.031582613 -0.07692994 -0.042394564 -0.13434504 0.002220106
-0.04047672 -0.13986485 -0.040736005 -0.023617564 0.026256938 -0.008953484 -0.07913431 -0.104470715
-0.018095983 0.055582304 -0.095839605 -0.09030039 -0.08326737 0.06521948 -0.041250147 0.011810548
-0.039901882 -0.038336795 -0.07486068 -0.102645636 -0.070500046 -0.03470291 0.011350834 -0.0863682
-0.041160997 -0.060938105 -0.080789246 0.076100774 0.021031223 -0.085225634 0.019284174 -0.03644095
-0.00029550493 0.007932733 -0.012218519 -0.10944158 -0.036406193 0.02485152 0.023394978 -0.054091755
0.013276059 -0.011801823 -0.036447417 0.06396145 0.014712786 0.00069524086 -0.08177765 0.0032821747
0.074087724 -0.033310283 -0.03902374 -0.014044404 -0.039948493 0.045985825 0.050633013 -0.08067579
-0.012868087 -0.080238685 -0.05496273 -0.034836903 0.03850955 0.03276349 0.0035772608 -0.099631906
-0.09883944 0.0030819029 -0.011761021 0.052156895 -0.01939263 -0.009145005 0.013363694 -0.007223156
-0.0030311828 0.037401054 -0.05796033 -0.098169275 -0.07735223 0.019090202 -0.06490561 -0.0017271013
-0.08336265 -0.05986297 -0.10001322 -0.06711213 -0.05586046 -0.09629229 -0.071081646 -0.14459735
-0.05807047 0.0019151536 -0.055360798 -0.06562143 -0.00972248 -0.014972879 0.03431388 -0.0123129245
-0.056898974 -0.068602525 -0.04237363 -0.005472303 -0.0060323984 0.005225372 -0.072823875 -0.064467154
-0.07495745 0.058934506 -0.081631206 0.047077212 -0.06774222 -0.0136707295 0.0324768 -0.01875242
-0.10873489 -0.10634096 -0.038456887 -0.01896132 -0.066094324 0.026173599 -0.04163803 -0.10170414
-0.04653077 -0.08243885 -0.014235008 -0.0826604 0.033003606 0.07794158 -0.029119607 0.007914785
-0.059006304 -0.075898245 0.022789521 -0.032794613 -0.034300055 0.013121497 -0.09886725 -0.07196525
0.076479346 0.024826402 -0.005280503 -0.07735957 -0.020258095 -0.031079073 0.032384556 -0.03127322
-0.068636596 -0.09881887 -0.02301579 0.066581406 0.060244653 -0.09588689 -0.016069312 0.08804735
-0.011422805 -0.06486958 -0.038328744 0.014249363 -0.06418841 0.070891574 0.0033898754 0.024839655
-0.069339015 0.013060135 -0.0034793734 -0.020891218 0.032375865 -0.051665734 0.020032587 -0.031885326
00000000: b8ab 613c 1bd0 bcbc 064c 393d ab3d cc3d
00000010: 3d77 703d d505 633d 89f2 92bc 18a8 053d
00000020: cf67 93bd 46c1 133b 3fd7 963d 6c40 a33b
00000030: 246e 10be 2285 c8bd 88a4 e1bb 0934 26bd
00000040: 3d58 79bc 13b5 943d 77b6 f43c 728a 933c
00000050: 1f93 8cbc 77c9 2c3c e9a2 15bd 110a 0a3d
00000060: 98b7 8c3d 9616 f1bc ca2e 353d f013 b8bd
00000070: 4313 c9bc 0288 80bd 8520 7abd 0f48 03bc
00000080: 34c4 2dbd d2b2 66bd a23b debc 8d5e 64bd
00000090: a399 983d da3f 1e3c 8f48 acbd c49d a2bd
000000a0: 5a87 8dbd c3cf 73bb 2760 a9bd f1fb 16bd
000000b0: 7b9f c53c 99ff 96bd b7e4 a03b da90 67bd
000000c0: e111 91bd d233 8d3d 2942 323d 80b5 a93b
000000d0: 3310 453d 9aeb a0bd 570f e0bc 4b53 80bd
000000e0: 0aea 5dbd d1c4 28ba caf7 9dbc 148a 093d
000000f0: e0d3 133d 1ae2 4bbd d462 bf3c ed6e f63c
00000100: 1ba1 01bd 7592 31bd 5fa9 7bbd 3866 b6bc
00000110: 77e4 cebc 6505 49bd 19b8 df3b bcae b1bc
00000120: a842 05be 05df 9dbc 02b4 5bbd 252c 60bd
00000130: 8005 86bb f7e9 ccbc da91 edbc 8f0b adbc
00000140: e323 bc39 6a7f 653d 9bfb 04be c55c 01bd
00000150: 728d 9dbd eca5 2dbd bf91 09be 337f 113b
00000160: ebca 25bd bb38 0fbe ccda 26bd 9f79 c1bc
00000170: ca18 d73c a2b1 12bc 2b11 a2bd bef4 d5bd
00000180: 073e 94bc 45aa 633d 8e47 c4bd 69ef b8bd
00000190: 1588 aabd ca91 853d eaf5 28bd 0781 413c
000001a0: 2870 23bd 0b07 1dbd 8e50 99bd e037 d2bd
000001b0: 5462 90bd a324 0ebd d9f8 393c d0e1 b0bd
000001c0: 6f98 28bd 3c9a 79bd d574 a5bd b9da 9b3d
000001d0: ac49 ac3c c78a aebd d8f9 9d3c 1b43 15bd
000001e0: 00ee 9ab9 4bf8 013c 2f30 48bc e822 e0bd
000001f0: a91e 15bd 6a95 cb3c d3a6 bf3c 518f 5dbd
00000200: d483 593c 6f5c 41bc e349 15bd 38fe 823d
00000210: e60d 713c d340 363a 0a7b a7bd c119 573b
00000220: 4ebb 973d 5d70 08bd 5bd7 1fbd 801a 66bc
00000230: 08a1 23bd a25b 3c3d 9064 4f3d 5939 a5bd
00000240: abd4 52bc 2e54 a4bd 9920 61bd 24b1 0ebd
00000250: 31bc 1d3d 0233 063d 7a70 6a3b d00b ccbd
00000260: 556c cabd c0f9 493b 4cb1 40bc 78a2 553d
00000270: 4bdd 9ebc eed4 15bc 65f3 5a3c 39b0 ecbb
00000280: cfa6 46bb d931 193d d067 6dbd f90c c9bd
00000290: d96a 9ebd 0e63 9c3c 3ced 84bd e75f e2ba
000002a0: 09ba aabd e032 75bd bbd3 ccbd 1672 89bd
000002b0: f0cd 64bd e434 c5bd 4193 91bd 5411 14be
000002c0: 4ddb 6dbd e405 fb3a 01c2 62bd 8764 86bd
000002d0: 094b 1fbc ce50 75bc b68c 0c3d 26bc 49bc
000002e0: e60e 69bd 7b7f 8cbd f98f 2dbd 0151 b3bb
000002f0: 6dab c5bb 9939 ab3b af24 95bd 5b07 84bd
00000300: 4b83 99bd 4f65 713d 432e a7bd 09d4 403d
00000310: 6fbc 8abd 32fb 5fbc 6506 053d ad9e 99bc
00000320: 66b0 debd 4ac9 d9bd f884 1dbd c554 9bbc
00000330: 765c 87bd 046a d63c a48c 2abd 434a d0bd
00000340: 0c97 3ebd b3d5 a8bd f339 69bc db49 a9bd
00000350: ca2e 073d d69f 9f3d 3e8c eebc 04ad 013c
00000360: 98b0 71bd 8a70 9bbd 17b1 ba3c a553 06bd
00000370: 377e 0cbd 8cfb 563c ea7a cabd 8462 93bd
00000380: 34a1 9c3d bd60 cb3c 1208 adbb b26e 9ebd
00000390: 4ef4 a5bc 8a99 febc aba5 043d 5918 00bd
000003a0: 5891 8cbd 8c61 cabd 9c8b bcbc d55b 883d
000003b0: 19c3 763d 5960 c4bd caa3 83bc 2b52 b43d
000003c0: b726 3bbc 58da 84bd 9afe 1cbd 2976 693c
000003d0: 3775 83bd 9a2f 913d ac28 5e3b 887c cb3c
000003e0: 9d01 8ebd 2dfa 553c 3306 64bb 0f24 abbc
000003f0: 8e9c 043d 739f 53bd 611b a43c 309a 02bd

fc2.bias f4 [128]
-0.13244645 -0.10583066 -0.08396855 0.31495073 -0.09593567 -0.011910141 -0.02889794 0.040989965
-0.07721928 -0.012246146 -0.015679466 -0.035325106 -0.041382488 -0.023591008 -0.07196596 -0.07954007
0.010757888 -0.09908107 -0.12311172 -0.11206683 -0.09397843 -0.026161712 -0.051432487 -0.07381539
-0.115810186 -0.05767387 -0.024383437 -0.05619739 -0.09742946 -0.109980196 -0.050535038 -0.114290215
-0.124948904 -0.006849918 -0.110749684 -0.0012794922 -0.07704277 0.059492417 -0.13852146 -0.09404967
-0.08105956 -0.11957925 -0.033455472 0.24541923 -0.08147967 -0.107772045 -0.122132614 -0.09467789
-0.10483824 -0.05562854 -0.059711013 -0.15062201 -0.017926179 -0.07828518 -0.059540484 -0.0755863
-0.1468401 0.32300496 -0.0069635212 -0.026586479 -0.13705288 -0.052050896 -0.038729187 -0.2190725
-0.07541381 0.15872785 0.27824205 -0.16698578 -0.09337646 -0.10126714 -0.094699785 -0.07163256
-0.07628031 -0.0097218435 0.36088824 0.0044775466 -0.053382125 -0.27474174 -0.03815858 -0.075874016
0.042925794 -0.07402688 -0.028296176 0.13705508 -0.3999475 -0.11506398 -0.0711609 -0.09823345
-0.04004589 -0.04535907 -0.28745514 -0.05132171 -0.087992184 -0.115782134 -0.06945479 -0.038493507
-0.007631475 -0.047390755 -0.10467506 -0.09131363 0.23792914 0.20093846 -0.078690104 -0.16925657
0.11148244 -0.4101583 0.28369245 0.0053556385 -0.14196976 -0.0381216 -0.26439846 -0.12047888
-0.1252812 -0.103400595 0.10317539 -0.11067902 -0.13549851 -0.058474995 0.1703739 -0.062395595
-0.10995794 -0.008794838 0.3023003 -0.069989584 -0.028277582 -0.102961056 -0.022312058 -0.12875238
00000000: 0ba0 07be bfbd d8bd b4f7 abbd 3941 a13e
00000010: ec79 c4bd c122 43bc 5fbb ecbc 18e5 273d
00000020: 2425 9ebd 0fa4 48bc 3972 80bc 0fb1 10bd
00000030: af80 29bd ee41 c1bc e462 93bd e7e5 a2bd
00000040: da41 303c 04eb cabd ff21 fcbd 4b83 e5bd
00000050: c377 c0bd 1651 d6bc dfaa 52bd 862c 97bd
00000060: e42d edbd 703b 6cbd c6bf c7bc 3c2f 66bd
00000070: 1989 c7bd 4c3d e1bd d4fd 4ebd fd10 eabd
00000080: 36e5 ffbd 4775 e0bb bbd0 e2bd a2b4 a7ba
00000090: 9ac8 9dbd 52ae 733d 92d8 0dbe 1d9d c0bd
000000a0: 8e02 a6bd f7e5 f4bd 9b08 09bd 2e4f 7b3e
000000b0: d0de a6bd 97b7 dcbd aa20 fabd 7be6 c1bd
000000c0: 6eb5 d6bd c1da 63bd 8993 74bd a83c 1abe
000000d0: ecd9 92bc fb53 a0bd b9e0 73bd fdcc 9abd
000000e0: 405d 16be e860 a53e 402e e4bb e3cb d9bc
000000f0: 9757 0cbe 5233 55bd 7fa2 1ebd 8b54 60be
00000100: 8e72 9abd 8e89 223e be75 8e3e 52fe 2abe
00000110: 283c bfbd 2565 cfbd f6f1 c1bd 17b4 92bd
00000120: da38 9cbd 5e48 1fbc 58c6 b83e 62b8 923b
00000130: 37a7 5abd f3aa 8cbe 2c4c 1cbd d663 9bbd
00000140: f5d2 2f3d 689b 97bd 62cd e7bc 2b58 0c3e
00000150: ebc5 ccbe aaa6 ebbd cebc 91bd 9e2e c9bd
00000160: 2907 24bd 6fca 39bd 522d 93be b736 52bd
00000170: 3f35 b4bd 2f1f edbd 503e 8ebd 5eab 1dbd
00000180: 7411 fabb cf1c 42bd e15f d6bd a402 bbbd
00000190: b2a3 733e d0c2 4d3e 4728 a1bd 9851 2dbe
000001a0: e850 e43d 4500 d2be 2340 913e 5a7e af3b
000001b0: 8560 11be 6525 1cbd 3c5f 87be a2bd f6bd
000001c0: b749 00be b1c3 d3bd 9e4d d33d afab e2bd
000001d0: 1fc0 0abe 7a83 6fbd 7f76 2e3e 8692 7fbd
000001e0: a131 e1bd 3918 10bc 1bc7 9a3e b356 8fbd
000001f0: 63a6 e7bc 3fdd d2bd c7c7 b6bc aad7 03be

fc3.weight f4 [1, 128]
-0.016070021 -0.031007804 -0.0003608217 -0.008968079 -0.0040130676 -0.01706727 0.006484635 -0.043820485
-0.0032454971 0.0062192045 0.012198697 -0.0013786016 -0.017008252 0.024920218 -0.007851734 0.015118103
-0.021667948 0.019083139 0.00029724668 0.0027839055 0.013831182 0.0074762343 0.030460607 0.0030749643
-0.016720887 0.0085748425 0.0031927146 0.016298478 0.025184486 0.027907081 0.004551104 -0.0011624175
-0.008050513 0.011741183 0.0029097726 0.007336624 -0.04575954 -0.01890765 0.0209419 0.002249631
-0.016609386 0.0076867878 0.0018393336 -0.016256822 0.006069263 -0.00016929019 0.028226491 -0.01063886
-0.0011042448 -0.025833867 0.039624155 -0.01913209 -0.016843285 -0.009869472 -0.01686619 -0.0003614486
-0.08199029 -0.006881175 0.0099062165 -0.01068188 -0.0060182754 0.008007533 0.02300793 0.057783347
0.06998738 -0.06527653 -0.009964671 0.020948436 0.017883431 0.00410382 0.0034874005 -0.017101431
0.006016601 -0.016841492 0.010257636 0.024099385 0.027919985 -0.03026745 0.02772059 -0.006168908
-0.01208131 0.02685704 -0.013831376 0.01885185 -0.02306214 -0.008672325 0.019603029 -0.010179653
-0.01796517 -0.0024225474 0.015600634 -0.012275324 -0.0071559944 -0.0043372177 0.012549862 0.012793375
-0.015263291 0.01888702 -0.028454302 -0.00026190229 -0.014034424 0.021539856 0.0395073 -0.02331383
0.025553286 -0.054224998 0.041366287 -0.033432405 -0.003373869 0.0005360689 -0.04012566 0.007455343
0.0069054062 -0.012637527 -0.011694638 0.039090544 0.016611293 -0.0024673773 0.0152350785 -0.0026988839
-0.010389871 0.033554826 -0.018274903 0.0025599692 -0.016936174 -0.00811317 -0.0313793 0.0309797
00000000: 47a5 83bc 1404 febc ab2c bdb9 daee 12bc
00000010: 0d80 83bb a9d0 8bbc 107d d43b 1c7d 33bd
00000020: 68b2 54bb 78ca cb3b 0bdd 473c 32b2 b4ba
00000030: e454 8bbc 7c25 cc3c 8fa4 00bc ebb1 773c
00000040: fb80 b1bc 3e54 9c3c c6d7 9b39 2f72 363b
00000050: 2f9c 623c 33fb f43b 8688 f93c 5785 493b
00000060: 3efa 88bc 7f7d 0c3c dd3c 513b 6384 853c
00000070: b24f ce3c 649d e43c 6d21 953b 425c 98ba
00000080: 4de6 03bc 175e 403c e2b1 3e3b 1068 f03b
00000090: 5b6e 3bbd 37e4 9abc 598e ab3c 8c6e 133b
000000a0: 6810 88bc 73e1 fb3b cb15 f13a 072d 85bc
000000b0: abe0 c63b 7d83 31b9 3e3b e73c 9d4e 2ebc
000000c0: 4fbc 90ba 8ca1 d3bc f04c 223d e7ba 9cbc
000000d0: eefa 89bc 91b3 21bc f72a 8abc cf80 bdb9
000000e0: 86ea a7bd 7b7b e1bb af4d 223c 0d03 2fbc
000000f0: f434 c5bb 0732 033c 207b bc3c 3bae 6c3d
00000100: 8b55 8f3d b4af 85bd dc42 23bc 0e9c ab3c
00000110: 4680 923c 5679 863b df8c 643b 4d18 8cbc
00000120: e826 c53b 2bf7 89bc a50f 283c 136c c53c
00000130: 74b8 e43c 71f3 f7bc 4a16 e33c 8d24 cabb
00000140: b0f0 45bc 4c03 dc3c ff9c 62bc 326f 9a3c
00000150: d0ec bcbc 5e16 0ebc 8896 a03c 8fc8 26bc
00000160: b12b 93bc 9ac3 1ebb cd99 7f3c 711e 49bc
00000170: d57c eabb 381f 8ebb f09d 4d3c 4e9b 513c
00000180: e212 7abc f4b8 9a3c ff18 e9bc ee4f 89b9
00000190: a4f0 65bc 5a74 b03c 68d2 213d a5fc bebc
000001a0: 2055 d13c 081b 5ebd b26f 293d 6bf0 08bd
000001b0: 211c 5dbb fa86 0c3a ce5a 24bd f34b f43b
000001c0: bf46 e23b a10d 4fbc de9a 3fbc 681d 203d
000001d0: 6814 883c b9b3 21bb 8d9c 793c c2df 30bb
000001e0: 473a 2abc c970 093d 40b5 95bc 28c5 273b
000001f0: bbbd 8abc 1aed 04bc 9587 00bd 24c9 fd3c
