checkpoint_actor1.pth (torch_old, 524603 bytes, 6 tensors)

fc1.weight f4 [400, 24]
000000 f5 20 a1 be 44 69 18 3e 38 0a 34 3c 06 53 87 3d
       -0.31470457 0.14883906 0.010988764 0.06607632
000010 81 be aa be 56 35 5a bf 7f 6b 82 3b 1b 78 1e 3d
       -0.33348468 -0.85237634 0.0039800997 0.03868876
000020 01 96 be be a3 9d 35 3e 0a ff 02 bc 53 07 87 3c
       -0.3722382 0.17735915 -0.007995376 0.016482985
000030 b9 87 e3 3d 31 72 f8 be 8f f6 2a bd 7f 00 8a 3c
       0.111098714 -0.4852462 -0.041739043 0.01684594
000040 d2 2f 3c be 37 f3 96 3e d2 81 68 bd c0 2a a0 bd
       -0.18377617 0.29482433 -0.05676443 -0.07820654
000050 ad a1 a0 3e e1 dc 74 be 95 39 17 bd 00 65 67 bd
       0.3137335 -0.23912384 -0.03692015 -0.056492805
000060 b7 ea e4 bd ba 40 df 3e 04 c1 3c bc c6 a0 13 3e
       -0.11177581 0.4360407 -0.011520628 0.14416799
000070 86 d2 e3 be ec e1 a8 be e1 35 9d bd 8a 20 17 3e
       -0.44496554 -0.32984865 -0.07676292 0.14758506
000080 7b 07 28 be 29 39 ff 3e e6 fd 0f bd 0e 3d 1e bd
       -0.16409104 0.49848297 -0.035154246 -0.038632445
000090 a4 a4 a5 3b 9b 37 6a bf ca 56 92 3b 9c 56 84 bd
       0.005055027 -0.914911 0.0044659125 -0.06461832
0000a0 24 55 0d be 8a ff 07 3f 65 ee e4 bd 5e d0 fc 3c
       -0.1380201 0.53124297 -0.11178283 0.030861076
0000b0 2a c2 ac 3e c1 9c f9 bf 00 60 8d bd 4f 55 c1 3b
       0.33741885 -1.9500962 -0.06903076 0.005900062
0000c0 ae 71 5f 3f f4 41 e5 3e b5 f8 15 3d 99 f1 60 be
       0.87282836 0.4477688 0.03661414 -0.21967162
0000d0 6b b8 41 3e ed a8 b3 be 89 56 2a bd 8a 34 87 be
       0.18918006 -0.35089818 -0.041586433 -0.26407272
0000e0 b3 48 3a 3f b6 aa b6 3e 95 d9 1a be 18 e0 93 be
       0.7276718 0.35677117 -0.15122063 -0.28881907
0000f0 c4 23 11 3e b1 60 9b bd 48 55 68 be 07 58 a7 be
       0.141738 -0.07586802 -0.22688782 -0.32684347
000100 ae 61 2e 3f d0 f1 81 3e 50 e5 e9 3b 65 25 e2 3e
       0.681178 0.253798 0.007137932 0.44169155
000110 de 17 98 3d ea 60 43 3e 6a a0 43 bd 67 22 cb 3e
       0.07426427 0.19079939 -0.047760405 0.39674684
000120 7a 37 b4 3e e8 5c 37 3e 74 e5 62 bd 69 df c4 bc
       0.35198575 0.17906535 -0.055394605 -0.024032312
000130 d0 1b 10 be 54 01 10 bf f4 3b bc bc bc 09 4c 3d
       -0.1407311 -0.56252027 -0.022977807 0.04981397
000140 23 4d d5 3e a4 5e 25 3e 06 31 50 bd fd f5 ec ba
       0.41660413 0.16149384 -0.050828002 -0.0018078681
000150 02 ac 8c be fe e0 1b bf 4f b6 f0 bd 15 7a 4f bd
       -0.27474982 -0.60890186 -0.117535226 -0.050653536
000160 91 aa e3 3e f8 55 20 3e d1 72 bd bd fd 48 fa be
       0.4446607 0.15657794 -0.09250415 -0.4888381
000170 33 bf af be f4 32 06 bf c9 2f 75 bd 07 a0 e0 be
       -0.3432556 -0.524215 -0.059860025 -0.4387209
000180 5d f1 0c 3f da 7e 77 3e 9f ea 2a bc 50 e4 58 be
       0.5505579 0.24169484 -0.010431915 -0.21180844
000190 0b f3 e0 3d 96 97 40 bf 58 79 0c bd 6d 3e 4a be
       0.10983857 -0.752313 -0.03429541 -0.19750376
0001a0 f2 b6 0d 3f 1a 73 5a 3e 8f 97 0e 3c 9f 82 dc bd
       0.5535728 0.2133297 0.008703127 -0.107671015
0001b0 74 ae 34 3e 9b 42 44 bf f3 76 52 3d a3 e9 00 be
       0.17644674 -0.7666413 0.05138297 -0.12589125
0001c0 9b ab 0f 3f ee f2 60 3e 54 bf 99 bd f4 ae 12 be
       0.56121224 0.2196767 -0.07507196 -0.14324552
0001d0 ae 5e 7a 3e 81 5c 39 bf 01 c8 17 be a1 d4 fc bd
       0.2445018 -0.72406775 -0.14822389 -0.12345243
0001e0 df f3 52 3d c8 2f 42 be 4b 6a 82 bd 44 c5 21 be
       0.051502105 -0.1896354 -0.0636793 -0.15797907
0001f0 c6 2b 36 be 62 5e 92 bd 70 37 5d bd f4 44 ef bd
       -0.17790136 -0.07146908 -0.054007947 -0.11683074
000200 c9 b9 02 3e b7 0e 38 be 99 3e f3 3b ff db 7a be
       0.12766184 -0.17974363 0.0074232337 -0.24497984
000210 4d 27 bc 3e af 95 f8 3e d1 32 01 3d df b8 83 be
       0.36748734 0.485517 0.031542603 -0.25726983
000220 4b bc 6e 3e c6 79 69 3b 0a 45 7c 3d 87 fd 71 bd
       0.23314016 0.003562556 0.06158928 -0.059079673
000230 03 c2 03 3f 70 23 b3 3e 71 d8 0f 3e e7 c4 44 3c
       0.51467913 0.34987974 0.1404741 0.012009836
000240 57 76 19 3f 2f 8f b7 3e 5f db 11 be eb b5 16 3e
       0.599462 0.35851428 -0.1424384 0.14717834
000250 e8 c2 3e be d1 15 45 be a8 32 e0 bd 3a 13 e0 3d
       -0.18629038 -0.19246604 -0.10947162 0.10941167
000260 21 8c b6 3e 86 a3 0b 3f 11 53 1c be 11 8a dc 3e
       0.35653785 0.5454639 -0.15266062 0.43074086
000270 04 79 24 be 80 39 73 be 45 b7 07 be 43 38 ce 3e
       -0.16061789 -0.23752403 -0.13253506 0.402773
000280 a2 ce 98 3e 01 5a 2c 3f 00 ca 2d be 37 df 45 3e
       0.29845148 0.67324835 -0.16971588 0.19323431
000290 18 e1 3f bd 10 ea 78 be e6 7e 16 be c1 06 6a 3e
       -0.046845526 -0.24308038 -0.14696845 0.22854139
0002a0 8f 6b 0c 3f 1a 8c 1d 3f 1d df cc 3c b3 bf e1 3e
       0.5485162 0.61541903 0.025008732 0.44091567
0002b0 45 87 1c 3f b0 4b d3 be 5f 7d d5 3d f6 d5 d3 3e
       0.61143905 -0.41268682 0.10424303 0.41374177
0002c0 5b b4 f5 3e a4 5b 31 3f 5d a2 45 3d 7d 7b 9d 3d
       0.47989163 0.6928046 0.048250545 0.07689569
0002d0 25 58 2c 3e ed 48 3e be 7a 4b 7c 3d c6 30 a7 3d
       0.168305 -0.18582506 0.061595418 0.081636
0002e0 33 98 c1 3e ce c6 0d 3f 04 e1 9a bd a2 09 72 3e
       0.3781143 0.55381477 -0.075624496 0.23636487
0002f0 e0 96 19 bf 16 b4 13 3e 34 bf a0 bd 23 00 73 3e
       -0.5999584 0.14424166 -0.07848969 0.23730521
000300 b6 de f9 3d 07 33 1d 3e 03 e0 33 bd 7e 11 14 3d
       0.12200682 0.15351497 -0.043914806 0.036149494
000310 fc 85 e1 3d 71 3f 8a 3e 69 ff 56 bd 64 4f 3e 3b
       0.110118836 0.27001527 -0.05248967 0.002903902
000320 5b 0c 70 3e 5e 4d 4f 3c 43 32 a9 bd cf d3 18 3e
       0.23442213 0.012652723 -0.0826154 0.14924549
000330 37 34 94 be bc 08 92 3e 3f 86 93 bd 4e a3 ed 3d
       -0.28946087 0.2852229 -0.0720334 0.116034135
000340 34 c1 c1 3e 72 85 c2 3d ce 2f 4b be bd 2a 3d be
       0.37842715 0.09498109 -0.19842455 -0.18473335
000350 dc f5 20 bf 31 68 53 3e 13 1a 5f be 51 55 2b be
       -0.6287515 0.20645215 -0.2178729 -0.16731764
000360 83 0b 89 3e f4 92 bc 3e 41 c1 d8 3c 4d 79 61 3e
       0.26766595 0.36830866 0.026459338 0.22018929
000370 d8 c9 2b 3e 87 6e 6d 3e 10 84 94 38 95 b8 47 3e
       0.16776216 0.23186694 7.0817885e-05 0.19504006
000380 6f 79 99 3e 35 3b da 3e d1 d6 eb 3c 5e e8 c0 3d
       0.2997546 0.42623296 0.028788956 0.094193205
000390 97 11 84 be bc a4 08 3f 41 d3 11 3d 69 c3 2a 3e
       -0.2579467 0.53376365 0.035601858 0.16676106
0003a0 43 6c d1 3e 82 22 06 3f 99 23 60 3d 0a ee 27 3d
       0.4090291 0.52396405 0.05472145 0.040998496
0003b0 90 a1 bc be fc 46 c8 3e 5f a3 95 3d 99 9d c6 b9
       -0.36842012 0.39116657 0.07306551 -0.00037882922
0003c0 42 a9 42 3f 3c 55 61 bc b5 1b f0 bd cc 01 38 be
       0.76039517 -0.013753232 -0.11724035 -0.17969435
0003d0 6c 64 32 3e 6e 02 a8 be 26 27 1d be 42 2e 2b be
       0.1742112 -0.32814354 -0.15346965 -0.16716865
0003e0 15 70 dd 3e f9 1e 2d 3e d8 1f 54 be 85 12 bc 3e
       0.43249574 0.16906346 -0.20715272 0.3673288
0003f0 53 fa 73 3e 77 17 b5 be 9b 5e 38 be b9 03 eb 3e
       0.2382596 -0.35369465 -0.18004839 0.45901278

fc1.bias f4 [400]
000000 df 2a f3 3d e5 9c 81 bd fe c2 fb be 65 a1 b0 be
       0.118734114 -0.063287534 -0.49172205 -0.34498134
000010 ca fc 20 bf 2f 9c 53 be b9 47 15 be cf ed 27 be
       -0.62885725 -0.20665048 -0.14578141 -0.1639931
000020 86 68 ef be 94 8c 74 be f2 9e b2 bd ab 55 9a be
       -0.46759433 -0.23881751 -0.08721723 -0.30143484
000030 73 55 c5 bd fe 7a 24 bf 1c c5 5c be ae 58 40 be
       -0.09635439 -0.6425017 -0.21559566 -0.18783829
000040 6e a2 fa 3d 05 71 e0 3c 3a e5 a2 bd c4 e8 15 bf
       0.12238012 0.027397642 -0.07953878 -0.585583
000050 f5 64 fe 3b 01 59 b4 be 16 9c 9f 3d 6d d1 8a be
       0.0077635 -0.35224155 0.07793443 -0.27112904
000060 fe 8f 91 be 0a 95 c1 be 2c 16 44 3e 4e 41 eb bd
       -0.2843017 -0.3780902 0.19149083 -0.11487065
000070 68 75 0d bd 53 c0 26 be a7 13 03 3e b2 ad 8e be
       -0.034535795 -0.16284303 0.12800466 -0.27866894
000080 ba 8f 3d bd e4 1b d2 be 20 c4 b6 be 19 41 88 be
       -0.046279646 -0.41036904 -0.35696507 -0.26612166
000090 59 83 0f bf 87 30 bb be 3a 9b 34 be 3c cb 7d be
       -0.56059796 -0.3656046 -0.17637339 -0.24784559
0000a0 1e 2f 5a be 8d 30 30 be e9 fd 18 be 26 15 2d bd
       -0.21307036 -0.1720602 -0.14940609 -0.042256497
0000b0 ae 98 89 be 45 f4 59 3c 50 6e c0 be a7 f1 70 bd
       -0.26874298 0.013302867 -0.37584162 -0.058824208
0000c0 31 77 5f be 87 a7 f7 be 3a 56 20 be 38 f5 41 bd
       -0.21822812 -0.4837 -0.15657893 -0.047353
0000d0 f2 76 e6 3c f9 bc ad be 0b 24 c4 bd 67 3c 3c be
       0.02813289 -0.33933237 -0.09577187 -0.18382417
0000e0 d2 a6 37 be d0 97 35 be 23 93 63 be 39 70 db bd
       -0.1793473 -0.17733693 -0.22224097 -0.10714764
0000f0 ab 2b 94 bc cc 6b 08 3e bf ca a9 be 29 fa 5a bf
       -0.018087229 0.13322371 -0.33162495 -0.85537964
000100 54 80 7a be b0 73 8f be 2a 3f 60 3e 51 35 9c 3e
       -0.24463016 -0.2801795 0.21899095 0.30509427
000110 17 ed e9 bd ca 42 46 3e 03 a8 b8 bd 03 27 65 be
       -0.114221744 0.19361416 -0.09016421 -0.22378163
000120 8e 6a f6 be 68 57 bd bd bc fa c0 bc 09 d1 e3 be
       -0.4812817 -0.09245187 -0.02355706 -0.4449542
000130 ff 3b cb be 21 03 f3 be aa de 73 3e 3f 44 9a be
       -0.3969421 -0.47463325 0.23815408 -0.30130193
000140 67 91 39 3e d3 76 d6 be 7f 17 f0 bc dc 5d 29 be
       0.18121873 -0.4188753 -0.029308079 -0.16539711
000150 f1 a0 a1 bd 4c 71 f8 3c c0 48 88 be 35 f6 09 be
       -0.07892025 0.030327462 -0.26618004 -0.13472827
000160 17 56 87 be 28 88 fa be 61 aa 1f bf cf 21 84 be
       -0.2643287 -0.48932004 -0.6236935 -0.25807044
000170 b6 d7 ab be 24 6d 7e be 9f 28 47 bd 5c 40 9e be
       -0.33563012 -0.24846321 -0.048622724 -0.30908477
000180 a2 47 5a be 86 18 05 be 34 09 a7 be 7d 36 9e be
       -0.21316388 -0.12997636 -0.3262421 -0.30900946
000190 c0 bb cd be e1 60 50 be 7a c5 5e be 39 a3 31 be
       -0.40182304 -0.20349456 -0.21755019 -0.17347421
0001a0 49 5a 03 be f0 70 96 be b9 1d a8 be cc 88 a7 be
       -0.1282741 -0.2938304 -0.32835177 -0.32721555
0001b0 ec 81 35 be 06 e3 06 bf 37 20 98 be 87 91 9e 3d
       -0.17725343 -0.5269016 -0.29712078 0.07742601
0001c0 6f d7 03 be 6f 62 23 be 1a da b3 be d4 e7 4a be
       -0.1287515 -0.15955518 -0.35127336 -0.19814998
0001d0 80 dd ca be 17 2a 93 be ae e5 ba be 4a 20 91 bd
       -0.39622116 -0.2874305 -0.36503357 -0.07086237
0001e0 d7 2b 93 be 87 ef fb be 81 3d 95 be 01 cf 0b be
       -0.28744385 -0.49206182 -0.29148486 -0.13653184
0001f0 e4 3d 9d bc 2e 06 08 bf 59 d9 87 be 79 64 de bd
       -0.01919455 -0.5313443 -0.2653301 -0.108590074
000200 9c d0 a0 bb fc 2a e6 be eb 6f 2f 3d 34 47 0e bf
       -0.0049076807 -0.4495467 0.042831343 -0.555774
000210 65 80 1d bf 7c ee 82 be 91 b9 95 be 5f ee 52 be
       -0.6152404 -0.25572574 -0.29243138 -0.20598744
000220 70 f9 51 be e8 ad e1 bb 55 d2 f6 bd c5 e3 a8 be
       -0.20505309 -0.0068871863 -0.120518364 -0.32986274
000230 37 9c 80 be dd ec be bc 3f 3e fd be 2a 20 dc be
       -0.25119182 -0.023306305 -0.49461553 -0.4299329
000240 aa de d1 bd ab 70 8a 3b 5d a7 1b bd 08 3e 91 be
       -0.10247548 0.004224857 -0.038001407 -0.2836764
000250 b7 07 3e be 18 42 9c be 30 c6 29 bd 8d 90 09 bf
       -0.1855763 -0.30519176 -0.041448772 -0.5373619
000260 26 30 45 be bb 1f 31 3e 77 96 04 bd 44 5d 2a 3e
       -0.19256648 0.1729726 -0.032370057 0.1663714
000270 2f 07 70 3e d0 1e d2 be ae de d3 be c6 7f 8d be
       0.2344024 -0.41039133 -0.4138083 -0.27636546
000280 2e 6d 10 3e 67 d5 da 3e e6 80 c5 be dc 63 f0 be
       0.14104149 0.42740938 -0.38574904 -0.46951187
000290 70 65 8c be 80 51 59 be 53 40 da be 3d a7 8e be
       -0.2742114 -0.21222496 -0.426272 -0.27861968
0002a0 49 32 fb bd 0a 42 95 bd 10 7c ee bc d9 07 c6 be
       -0.122654505 -0.072879866 -0.029111892 -0.38677862
0002b0 11 f9 0f bd 8d b7 d2 bd 4b a1 55 bd e3 80 e9 bd
       -0.035149638 -0.10288916 -0.052155774 -0.11401536
0002c0 36 b4 f2 be 02 4e e3 bd f4 59 a5 3e d7 25 b0 be
       -0.47403115 -0.11098863 0.3229519 -0.3440387
0002d0 61 fa a4 3d 89 b1 01 bd c6 d4 af be 1a 33 42 3e
       0.080555685 -0.03166345 -0.3434202 0.18964806
0002e0 e1 c0 ce be ab b3 a1 be da eb 44 bd 13 8e 34 be
       -0.4038153 -0.31582388 -0.048076488 -0.17632322
0002f0 d3 22 c0 bd 5d ba 1e be 68 f7 52 be 66 0e 13 bf
       -0.09381642 -0.1550078 -0.2060219 -0.57443845
000300 bd 2a e1 be 7a dc 14 3d d7 df 9f be 37 ab 17 be
       -0.4397792 0.036343075 -0.31225464 -0.14811407
000310 5e f9 ac 3e a7 ad ee 3d b2 7d 31 3e ac d2 f8 be
       0.33784002 0.11654215 0.17333105 -0.4859823
000320 ab a8 a2 be 76 e5 39 3d 37 c0 47 be 8c 42 09 bf
       -0.31769308 0.045384847 -0.19506918 -0.5361717
000330 d0 a7 2d 3d 7e 3d 8c be dc 78 2c be 4b 86 29 bd
       0.042396367 -0.27390665 -0.16842979 -0.041387837
000340 38 ab 8c 3d 07 b1 a8 be f2 5f 32 be 05 ab 8e be
       0.06868595 -0.3294756 -0.17419413 -0.27864853
000350 b5 c7 6d bd a0 f6 d7 be c6 c4 92 be 16 f2 f6 bc
       -0.058051784 -0.42180347 -0.2866575 -0.030144732
000360 6a 12 7e 3d a1 58 13 bf 47 4d 96 be e4 a1 5c be
       0.06202928 -0.5755711 -0.29355833 -0.21546131
000370 f6 b8 e2 be bc e7 81 be be 8c 79 be a8 a5 c9 3d
       -0.4428174 -0.25372112 -0.24370095 0.098460495
000380 2d 10 92 be 3f 33 53 be a4 7f 33 be aa a1 f7 bd
       -0.28527966 -0.20625018 -0.1752916 -0.12091382
000390 1b 42 15 be 23 69 ac bd 99 cf cc bd 14 d6 af be
       -0.14575998 -0.08418491 -0.100005336 -0.34343016
0003a0 f6 23 b3 be f0 5a f3 bd f4 25 b1 bd 5a 2c 09 be
       -0.34988374 -0.11882579 -0.08649817 -0.13395825
0003b0 c9 1c d5 3d f8 88 f5 be 4b 3b 9e be 68 9c 60 be
       0.10405881 -0.4795606 -0.30904612 -0.21934664
0003c0 ce 29 02 be 9f 8b e5 be 77 d9 05 3e f1 1f bb be
       -0.1271126 -0.44833085 0.13071238 -0.36547807
0003d0 eb 52 bc be 3f dc 11 be 1d 93 0c bf d2 8d 5c be
       -0.3678201 -0.14244173 -0.5491198 -0.21538475
0003e0 90 91 78 be 8f 1b 38 be 5e 87 b9 bd ba 0e b8 be
       -0.24274278 -0.17979263 -0.09059022 -0.35948735
0003f0 46 62 33 bf 2d bc 71 be 53 91 02 bf a7 99 99 be
       -0.7007183 -0.2360694 -0.51003 -0.3000004

fc2.weight f4 [300, 400]
000000 57 34 02 3c 0a cc 45 bd b3 d3 b7 3c 73 89 d3 3c
       0.007947049 -0.04829029 0.022439813 0.025822377
000010 56 2f 54 3c 7c 64 0c be 9e 89 b3 3c 77 96 20 bd
       0.012950739 -0.13710207 0.021916207 -0.039205994
000020 0c 16 a6 bb e5 af 0f bd 27 06 c4 bc 49 03 34 bd
       -0.005068546 -0.035079855 -0.023928715 -0.043948445
000030 35 61 9f bd a1 ab 43 3d 3e b8 1f bd a8 e2 a3 bd
       -0.07782213 0.0477711 -0.038994066 -0.080022156
000040 bd 3d c5 bc 5b 77 d3 bc d6 9d dc ba 24 36 94 bc
       -0.02407729 -0.025813749 -0.0016831707 -0.018092223
000050 7e e4 08 3c 6d cb e8 bb 43 71 49 bd 55 ad a2 3c
       0.008355258 -0.0071043284 -0.04918028 0.019858042
000060 5a e0 4a 3d c3 46 10 3d 08 7d 29 bd 99 03 42 bc
       0.049530365 0.035223734 -0.041379005 -0.011841678
000070 8f 52 97 3b f9 65 16 bd 77 c5 dd bc 36 13 72 bc
       0.004617996 -0.036718342 -0.027071698 -0.014775088
000080 27 06 53 bd 1e dd 5a bd 00 a8 08 3d a1 69 65 bc
       -0.05151954 -0.05343353 0.033363342 -0.014002235
000090 ff 7b 2e bd 7f 0a b2 3b 1b a1 04 bd b0 69 1b 3d
       -0.04259872 0.00543338 -0.032380205 0.03794259
0000a0 b5 2a 97 bd c5 61 5b bd fa 74 e3 bc b8 8c 23 bd
       -0.073811926 -0.053560037 -0.02776574 -0.03992912
0000b0 d4 17 e1 3c 81 fa 84 bc 41 b7 f1 bc 13 5d c2 bd
       0.027477182 -0.01623273 -0.029506328 -0.09490409
0000c0 32 c0 96 bd ab 4b f6 3c d3 73 da bc 4d b6 dd bc
       -0.07360877 0.030065378 -0.026666557 -0.027064467
0000d0 93 9e 55 bd ac dd 14 bd 2f 77 65 bd 55 1f f5 3c
       -0.05215318 -0.036344215 -0.056021865 0.029922167
0000e0 dd 6c 0d bc 65 cb a8 bc da bc fc bc ea ec 05 bd
       -0.008631912 -0.020604799 -0.03085177 -0.032696642
0000f0 da fb 58 3c 85 65 b4 bd 28 17 a1 bd 2b e1 e4 3c
       0.01324364 -0.08808426 -0.07865745 0.0279394
000100 4b 6c 07 3d 71 f7 94 3c 85 4c 35 3d 8f 94 51 bd
       0.03306226 0.018184396 0.044262428 -0.051167067
000110 af 6f e0 bd 7d fe 05 3d 73 2e 38 bd 8d d6 da bc
       -0.10958802 0.032713402 -0.044966172 -0.026713634
000120 d7 61 16 bc 1a 8b 1d bd 28 ab cf bd 43 3c 66 bb
       -0.0091786 -0.038462736 -0.10140067 -0.0035131134
000130 b7 2c 6f bd 5e 30 8d bd 6d 54 81 3c a5 c9 25 bd
       -0.058392253 -0.06893991 0.015787328 -0.040475506
000140 4f 0a b2 3c 85 9d bb bc 4b 74 b8 bc a5 62 b4 bc
       0.021733431 -0.02290226 -0.02251639 -0.022019694
000150 ab 30 04 3d 7f 03 d4 bc 78 e0 0f bc 34 2f 18 bd
       0.032272976 -0.025880573 -0.008781545 -0.03715439
000160 c9 01 54 bd c2 28 07 3d 12 28 8d 3c 6b 8a ef bc
       -0.051759515 0.032997854 0.017231021 -0.029240808
000170 e4 cc d5 bc 4c 22 14 bd 4b 1f 0e bd 37 49 da bc
       -0.026098676 -0.03616552 -0.034697812 -0.02664624
000180 e4 93 16 3d 95 a5 71 bc d0 37 9d bc 39 99 17 3c
       0.036762133 -0.0147489505 -0.019191653 0.00925284
000190 2d ab b5 3c 18 21 be 3c ee c2 a9 bd c7 93 2f bc
       0.02217635 0.02320914 -0.08289133 -0.010716385
0001a0 3c f1 dd 3c 2c ee 01 bd e1 da 38 bc df 35 c8 bb
       0.027092569 -0.03172128 -0.011282654 -0.0061099376
0001b0 61 67 42 3d 97 c4 85 bd 01 60 7d bc 63 e2 5b 3c
       0.04746187 -0.06531637 -0.015464784 0.013420674
0001c0 97 19 84 bb a9 21 fc 3c d0 ca c3 bc 61 e1 60 bd
       -0.004031371 0.03077777 -0.02390042 -0.054902438
0001d0 70 f6 90 bd a7 60 23 3d 64 d6 17 bd d9 5f 06 3d
       -0.07078254 0.039887097 -0.037069693 0.03280625
0001e0 58 a8 00 bc d4 9b 5a bd b9 89 da bc 3d 07 92 3d
       -0.007852636 -0.053371266 -0.026677 0.07130287
0001f0 84 21 a9 bd 49 26 75 bc ef dc 7f b9 5e 4f ad 3c
       -0.08258346 -0.014962741 -0.00024400999 0.02115601
000200 a2 5b 1f bd f9 85 e8 3b ad ba 28 3c 0f 0a d9 3c
       -0.038905747 0.007096049 0.010298413 0.026494054
000210 f6 93 87 bd 5f 06 94 bc 56 59 d3 bd 13 11 59 bd
       -0.06620018 -0.018069444 -0.10319774 -0.0529948
000220 66 a4 92 3c 4c a9 82 bd 21 32 44 bc b0 12 61 bd
       0.017900657 -0.06379947 -0.011974842 -0.054949462
000230 69 ed 36 3d 5d 78 e2 bc 61 15 8e bc 81 5c 82 bc
       0.044660006 -0.027645284 -0.017344179 -0.01591325
000240 81 5b d4 bd e4 79 74 bd 0a f6 cf bb 26 24 ed bc
       -0.103690155 -0.059686556 -0.006346469 -0.028947901
000250 7d a3 17 bd 20 7f d3 bc 9c 3b 4b 3b 03 ab 58 3d
       -0.03702115 -0.025817454 0.0031010872 0.052897464
000260 eb e9 1f 3d 9f b2 ae bc 1b 75 f6 3c 6f 55 1e bd
       0.03904144 -0.021325408 0.030085137 -0.038655695
000270 56 a0 67 bd f3 7d 3f bb 10 c6 0e bd 73 8d 43 3b
       -0.056549393 -0.0029219359 -0.034856856 0.002983895
000280 62 2b bd 3c c7 cb 92 3c 95 d2 d0 bd d3 d7 d1 bc
       0.023091976 0.017919434 -0.10196415 -0.025615608
000290 0b 88 8f bd dd 1f 27 bd 86 ac 74 3c 5d 11 69 bd
       -0.0700837 -0.04080187 0.014933711 -0.056901325
0002a0 16 99 01 bd 73 16 f0 3c 47 15 03 bd bf 68 be 3c
       -0.031640135 0.02930758 -0.032002714 0.023243306
0002b0 80 46 cd 3b 79 86 0a 3d be b2 f4 bc 9b fc e0 3c
       0.006264508 0.03381965 -0.029870387 0.027464202
0002c0 98 95 99 bc 11 f7 1d bd d6 a9 60 bd 86 ae 49 3d
       -0.01874809 -0.0385657 -0.05484947 0.049238704
0002d0 3d ac 34 bd d7 bb e1 bc 5b b1 d1 bc 48 ee ca 3c
       -0.04410957 -0.02755539 -0.025597265 0.024771824
0002e0 8b ba b2 bd a3 e8 56 bd 42 f2 d4 3b 4c ac a0 bc
       -0.087269865 -0.052467953 0.006498606 -0.019613408
0002f0 83 43 58 3b 93 07 85 3c d5 0c 23 bd 7d 96 31 3d
       0.0032999224 0.016238963 -0.03980716 0.043356407
000300 04 ff 7e bd 67 43 64 bd e3 2b 19 bd 19 13 81 bd
       -0.06225492 -0.055728342 -0.03739537 -0.06302471
000310 53 81 6e bc a2 13 f6 3c 13 0b 71 bc e0 e4 ed bb
       -0.0145572005 0.030038659 -0.014712113 -0.00725995
000320 e7 91 45 3d 75 cf 99 bd 3b a2 be ba 56 52 b7 bb
       0.048234846 -0.075102724 -0.0014544198 -0.005594532
000330 f2 33 82 bd 05 fa 5b bb dc ac 03 bd 0b 5f ab bb
       -0.06357564 -0.0033565771 -0.032147273 -0.005229836
000340 54 ed e8 bc ee 3d c0 bc 39 3b 11 bd 39 f0 79 bd
       -0.02843348 -0.02346703 -0.03545687 -0.06102011
000350 62 73 54 bd 4a a0 ac 3c 1e ba ee bc a9 2e 2f 3d
       -0.05186785 0.021072526 -0.029141482 0.042769108
000360 a9 8f 91 3b 52 3a d6 bd 4e e5 49 3d f3 ae 80 3b
       0.0044421745 -0.104603425 0.049290948 0.0039271056
000370 21 a5 be bc 9e 7b 31 3b ab 5c f3 ba ad 1b cc 3c
       -0.023272099 0.0027081738 -0.0018567046 0.02491554
000380 5a 3a a6 bd 4a e6 47 bd 9d 99 85 bd f9 56 1f bd
       -0.081165984 -0.048803605 -0.0652344 -0.038901303
000390 fd e9 cc 3b 22 27 39 bd b1 6c 40 bd 5d 45 3d bd
       0.0062534795 -0.045203336 -0.046978656 -0.046208728
0003a0 3f bd 2a bd f7 4d 1c 3d f6 b0 63 3c d8 4c 11 bd
       -0.041684385 0.03816029 0.013897171 -0.035473675
0003b0 20 18 c0 3c b0 3f 54 bd 75 1a 49 bd eb 85 ac 3c
       0.023449004 -0.05181855 -0.049097497 0.02105995
0003c0 47 39 b8 bd 06 c9 85 bd d7 69 f5 bb a6 4f 7a bd
       -0.089953 -0.06532483 -0.0074894237 -0.061111115
0003d0 0f 72 36 3d 4d 30 75 3b 3c e9 c3 3c a3 67 6b bd
       0.04454237 0.0037412823 0.023914926 -0.057471883
0003e0 11 a7 f1 bc 6c e0 28 bd cc 8f 07 3d bc a7 1d bd
       -0.029498609 -0.04122965 0.03309612 -0.038490042
0003f0 d8 bc 24 bd 83 d9 58 3b d1 c6 40 3d 4b 64 1d 3d
       -0.040219158 0.0033088631 0.047064606 0.038425725

fc2.bias f4 [300]
000000 64 3f 33 bd 12 4d e8 be 0f 26 f9 bd e1 bf 40 be
       -0.043761626 -0.453713 -0.12165462 -0.18823196
000010 1b 9b d3 3c f8 59 d6 be 31 f5 13 3e ab c4 28 bf
       0.025830796 -0.41865516 0.14449002 -0.6592509
000020 62 dd ee 3d 59 ac 0d bf 80 e4 1c be 30 d0 6a bd
       0.11663319 -0.55341107 -0.15321541 -0.05732745
000030 87 62 bc be d3 6d c7 bd c6 ed 39 3c 4d b0 d4 be
       -0.3679392 -0.09737744 0.0113481935 -0.41540757
000040 69 13 a8 3e 00 2d 08 3d 92 7d 9f bd 21 fc b1 bd
       0.3282731 0.03324604 -0.077876225 -0.08690668
000050 85 0b 54 3e 92 8a fb 3c 79 2c 95 bd f2 21 89 bd
       0.2070752 0.030705724 -0.07283873 -0.06695928
000060 26 66 2b be 23 dc 3c be 1d 4f 0c bf f8 31 b6 bd
       -0.16738185 -0.1844335 -0.5480822 -0.088962495
000070 49 67 8a 3d 1d fc 2b be c4 6e ee bd 8a bb 69 be
       0.06757981 -0.16795392 -0.116422206 -0.22825447
000080 70 30 b4 be ed 1b 9b be 8d e5 55 be 81 0c a6 be
       -0.35193205 -0.30294743 -0.20888348 -0.32431415
000090 81 39 4b be e3 d0 5c be e0 37 60 be 2e 90 b1 be
       -0.19846155 -0.21564059 -0.21896315 -0.34680313
0000a0 13 03 07 bf c9 a3 f4 3d 6b 3b ea be f9 3b 92 be
       -0.52739066 0.11945302 -0.45748457 -0.2856138
0000b0 5f ce 83 be 3a 7a b2 be 5a 7b 62 3e e1 c8 d6 bd
       -0.25743386 -0.34858876 0.22117367 -0.10487533
0000c0 eb f4 48 3d 43 73 dc be 36 1e ff bc 74 42 3b 3e
       0.049061697 -0.43056688 -0.031142335 0.18287069
0000d0 b9 42 2d be 55 d0 9d bd b5 4f 3e be 3e a3 83 bd
       -0.16919984 -0.07705752 -0.18585093 -0.0642762
0000e0 a8 82 38 be e4 8a 28 be 68 0c b2 bd eb 94 b0 be
       -0.18018591 -0.16459233 -0.086937726 -0.34488615
0000f0 a4 85 70 3d 3c 1f 3a bd 39 77 aa be 1e bd 0c be
       0.0587212 -0.045439944 -0.33294085 -0.13744017
000100 da f9 7f be 47 8e b5 bd 8a 46 c9 bd ee b2 d7 bc
       -0.24997655 -0.08865028 -0.098279074 -0.026330438
000110 4d 8b e5 bc 4c 4a c2 bd 65 0a 97 bc 99 a4 5c bc
       -0.028020525 -0.09486827 -0.018437574 -0.0134669775
000120 15 f9 ca bd 0c 81 a6 bd 9e d9 c8 bc 58 d6 34 bf
       -0.0991079 -0.081300825 -0.02451783 -0.7063956
000130 a6 5c 26 be 7a 5a ef be 8c 02 b3 be 75 fe 16 be
       -0.1624628 -0.46748716 -0.3496288 -0.14745505
000140 e3 48 42 3c f4 c2 fb bc ba 8f 39 be 54 fe 99 be
       0.011858198 -0.03073261 -0.18121234 -0.3007685
000150 db a3 a5 be 20 80 18 be 64 a4 66 be 19 79 98 bc
       -0.32351574 -0.14892626 -0.22523648 -0.018612431
000160 54 6d c2 be 35 c1 d9 bd e7 ca 8e bd 13 01 bb bd
       -0.37974036 -0.106325544 -0.06972294 -0.09131064
000170 8b 3c 9b be 2a 5c 42 be bc cf 0d be 2c 63 ae be
       -0.30319628 -0.1898047 -0.13848776 -0.34060037
000180 f8 22 97 bd 31 4b 95 be 71 1a 0b be cd 22 4b be
       -0.07379717 -0.2915893 -0.13584305 -0.19837494
000190 15 34 90 be 3c e8 c1 bd 6c 91 cf bd c6 2d 07 be
       -0.28164735 -0.09468123 -0.10135159 -0.13201055
0001a0 10 f2 e1 be 29 78 c2 bd e9 10 ba bd 4d 7c f0 be
       -0.44129992 -0.09495575 -0.090852566 -0.46969834
0001b0 15 a1 b3 bd 3a 7b 9d bd 0f 25 5d be 53 ed 2c be
       -0.08770958 -0.07689519 -0.21596168 -0.16887407
0001c0 3b f9 cf bd 1d 47 fc bd 68 94 ff be 40 a3 a7 3d
       -0.10154959 -0.12318251 -0.49917912 0.08185434
0001d0 70 2c e2 3d fb 90 e8 bd 6d b2 c4 be 89 40 91 bb
       0.11043632 -0.11355778 -0.38417378 -0.004432742
0001e0 48 e4 96 be 51 31 17 be 39 82 ae bd 57 28 71 bd
       -0.2947104 -0.14764906 -0.08520932 -0.05887636
0001f0 94 90 71 3e f6 c2 ae be 20 d2 aa bd 2b d9 74 3e
       0.23590308 -0.34133118 -0.083408594 0.23910968
000200 2a 8c 54 be c8 af 88 be 21 57 fa be 43 29 28 be
       -0.20756593 -0.2669661 -0.488946 -0.1642199
000210 4a 6d 1c bf 1c 5b 0c bc 74 f6 f4 bd 67 4d bb 3e
       -0.6110426 -0.008566644 -0.1196107 0.3658249
000220 fb c7 c1 be 94 61 b2 be 6b 54 a1 be 0d 17 cf be
       -0.37847885 -0.3484007 -0.31509718 -0.40447274
000230 97 e4 95 bc fe 81 91 be 65 f4 d6 bd 27 a2 87 bd
       -0.018297477 -0.2841949 -0.10495833 -0.06622725
000240 80 82 ce be 8e 6c 2b be 34 26 34 bd a0 1a dc be
       -0.4033394 -0.16740629 -0.043981746 -0.42989063
000250 a2 1f 06 bf cb 7f 3d be 99 10 96 bd 17 23 32 be
       -0.5239202 -0.1850578 -0.073273845 -0.17396198
000260 ef 35 e6 3d c8 3b 46 be 2b 7b bf bd ef 65 87 bd
       0.11240756 -0.19358742 -0.09349664 -0.06611239
000270 91 b6 92 be 03 d5 b1 be c6 17 84 be ce 0b be bd
       -0.28654912 -0.34732828 -0.25799388 -0.09279595
000280 30 14 ce bd 69 06 3e bb ee c6 9e bd 84 24 27 be
       -0.10062444 -0.002899552 -0.077527866 -0.16322523
000290 95 b1 22 be 43 e9 c1 bc 6e c4 e9 bd 82 c0 0b bf
       -0.15888055 -0.023670798 -0.11414419 -0.5459062
0002a0 8d af ea be f7 67 c3 bd 5b 00 8c 3d b4 09 57 3c
       -0.4583706 -0.09541314 0.06836005 0.013124872
0002b0 c0 24 0b bf c3 8e ed be 3c 9c 6c be 8e f7 80 3e
       -0.5435295 -0.4639798 -0.23106474 0.2518887
0002c0 75 e9 43 be d9 75 21 bd ec 49 09 3e 51 62 87 bd
       -0.19132026 -0.03941903 0.13407105 -0.06610549
0002d0 d1 9a 0d bf 87 94 cb bd 7a b0 92 be 29 36 9f bd
       -0.55314356 -0.09940439 -0.28650266 -0.07774002
0002e0 20 2b 53 bc 7f d2 ea be c2 dd f0 3e 6e 05 92 3e
       -0.0128887 -0.4586372 0.47044188 0.28519768
0002f0 f1 77 b2 be 08 24 82 bd 31 bc e5 be 6c 1d b1 3d
       -0.34857133 -0.06354529 -0.4487014 0.0864819
000300 33 46 8b bd eb 78 08 be d0 e3 15 bf 0f 33 69 bd
       -0.06800499 -0.13327377 -0.5855074 -0.05693346
000310 cd 00 b1 bd cc 39 f0 bd f6 01 02 be 82 95 31 bd
       -0.08642731 -0.11729774 -0.1269606 -0.043355472
000320 d4 4d 1f be 0f 9d e1 be 9f b7 93 be e9 35 26 3d
       -0.15557033 -0.4406514 -0.2885103 0.040578756
000330 18 81 33 bd 46 73 00 be 42 1c f4 be ab 0e bd bd
       -0.043824285 -0.12543973 -0.4767781 -0.09231313
000340 a9 01 98 be db e6 c5 bd bd 87 57 3e 36 5a 8f bd
       -0.29688767 -0.09663173 0.21047874 -0.06999628
000350 b3 b8 0e be 05 88 52 bd 8b 0f d9 bd 2c c6 cf be
       -0.13937645 -0.05139925 -0.10598668 -0.4058088
000360 d6 d7 a2 bd 2c e6 04 be 9a f6 0b bf 5e a9 c5 bd
       -0.07951324 -0.12978429 -0.5467316 -0.09651445
000370 fc 2e 20 be 88 85 a6 be fd 3b 31 bd bd 72 d9 be
       -0.15642923 -0.3252375 -0.0432701 -0.4247035
000380 b5 11 50 3e 22 7f a8 be 7b 4f da bc d8 be 27 be
       0.20319255 -0.32909495 -0.026649227 -0.16381395
000390 51 4d a9 3e 90 e0 8e 3d 1c a8 88 be 28 37 09 be
       0.330668 0.06976426 -0.26690757 -0.13399947
0003a0 24 66 c0 3c ac 18 5d bd b5 c6 d0 bd d0 80 74 bd
       0.023486204 -0.053978607 -0.1019415 -0.059693158
0003b0 c0 b8 a4 bd 39 6a 15 be e7 b2 74 bc 7c ed 86 bd
       -0.08043051 -0.14591302 -0.014935232 -0.06588265
0003c0 00 1e 41 bd ad b5 9b bc 79 ee a3 be 69 d1 31 3e
       -0.04714775 -0.019007528 -0.32017878 0.1736504
0003d0 8e 64 df be 0c c7 96 be b4 f9 68 bd 95 ae 69 bd
       -0.43631405 -0.29448736 -0.05687876 -0.05705126
0003e0 c9 a3 68 be ca 9f a5 be 7c ed 8a bc 5d a1 56 be
       -0.22718729 -0.32348472 -0.016958944 -0.20959993
0003f0 8e 26 23 3e 58 9c bc bd bf 50 16 be 92 23 ab bd
       0.15932676 -0.09209508 -0.1467924 -0.08356394

fc3.weight f4 [2, 300]
000000 9e c5 0a 3d d5 ce aa be 53 13 07 3c 24 d4 2a be
       0.03387987 -0.33360925 0.008244353 -0.16682488
000010 c8 74 90 3c 70 02 1c 3e f9 15 45 bb 67 b2 09 be
       0.01763381 0.15235305 -0.0030072911 -0.13446961
000020 1f dc 97 3f 9e 48 9f 3e 1e 07 a5 be fb fb 3e bb
       1.1864051 0.3111009 -0.32231992 -0.0029141891
000030 3f 34 19 bc a1 19 08 bf 0a d3 11 3d 68 db 07 bd
       -0.009350835 -0.53164107 0.035601653 -0.033168226
000040 46 31 39 bd d3 8a 8f bd b8 6c 80 3b a4 44 d4 bc
       -0.045213006 -0.070089005 0.0039192103 -0.025911637
000050 55 91 05 be 09 bb 69 bd 1e b1 74 3c 37 79 0b 3d
       -0.13043721 -0.057063136 0.014934806 0.034051146
000060 27 49 2c 3e 55 6b e3 3a 19 19 de 3c 6c 8c 80 3c
       0.1682478 0.0017350713 0.027111577 0.015691958
000070 68 bf a9 bd fd 0a 0d bc d9 90 3e 3a a2 3c fd 3c
       -0.08288461 -0.008608577 0.0007269509 0.030912701
000080 3b 6b 45 bc 80 12 80 3d e7 10 b0 3d 58 d1 86 3d
       -0.0120494915 0.062535286 0.08596974 0.06582898
000090 cf ac 8c bc e5 4c 27 bd 23 53 0d bd 14 2f 77 3d
       -0.017172245 -0.040844817 -0.034503113 0.06034763
0000a0 e4 ba 3c be d5 ec 18 be ad 0a 85 3c 14 9a d2 3c
       -0.18430668 -0.14934094 0.016240442 0.025708236
0000b0 d5 a5 f0 3c b5 52 04 bf e5 75 ed bc dc 39 e9 bc
       0.02937595 -0.516887 -0.02898688 -0.028469972
0000c0 b8 db f2 be d0 23 46 3e 40 bb db bb fb 84 0f bd
       -0.47433257 0.19349599 -0.0067056715 -0.03503893
0000d0 20 ca 47 3e 6e 75 b4 3b 58 c2 34 3c ed ff 8d be
       0.19510698 0.005507163 0.011032663 -0.27734318
0000e0 09 e6 6e bd d0 46 00 bc 88 b5 0f 3b 8f 34 17 3e
       -0.058324847 -0.007829383 0.002192827 0.14766143
0000f0 cc 05 4e bc c8 5f 9c 3e 97 3f 8b 3c a1 f9 cb bd
       -0.012574624 0.30541825 0.016998095 -0.09959722
000100 0b 73 88 bc 0d f1 96 b7 93 59 ec 3b d6 91 e4 3c
       -0.01665642 -1.7993641e-05 0.0072128265 0.027901571
000110 36 fe 41 3f 2f dd 84 bc af 43 00 3a d4 05 0a 3f
       0.7577852 -0.01621875 0.0004892898 0.53915143
000120 fa 45 f3 bc 64 8f ab 3b 64 5a 79 3d 73 e7 59 be
       -0.029696453 0.0052355994 0.06087722 -0.21279697
000130 21 77 1c bd 9d 93 0b be af 4c ef 3d 2e 53 29 bb
       -0.038199548 -0.13630529 0.11684548 -0.0025836932
000140 20 f3 06 3c 2b 37 79 39 70 a5 2b 3e 97 f7 e1 3d
       0.008236676 0.00023767042 0.16762328 0.11033552
000150 1a 76 5a be 7a d1 d5 3c 4a e9 18 3c c1 26 27 3b
       -0.21334115 0.026100863 0.009332964 0.0025505277
000160 d4 25 28 bf 57 d2 5a 3c 4d a2 6f 3a 7f 39 85 3c
       -0.6568272 0.013355813 0.0009141311 0.016262768
000170 db 00 7d 3e 64 6f 82 3b 4a 7a f8 bc b5 c6 b3 3e
       0.24707358 0.003980564 -0.03033175 0.3511254
000180 c1 85 0c bc 85 2a 8c be c1 19 32 bc 60 51 5b 3f
       -0.008576811 -0.2737619 -0.010870398 0.85671043
000190 cb df 5c c0 36 78 0c 3c 55 94 ce 3b b8 d0 f8 3d
       -3.4511592 0.008573582 0.0063043036 0.12149185
0001a0 d0 33 0a 3d d7 a5 fc 3c 1b 07 82 bd 2c 44 cc 3b
       0.03374082 0.030840797 -0.063490115 0.0062337127
0001b0 e1 42 38 3c ac 72 57 3b 44 9b 1d bd a9 01 4d 3e
       0.011246414 0.0032874746 -0.03847815 0.20020165
0001c0 87 52 e5 3d ec bd 90 bf 92 68 05 bf ca 5d 26 be
       0.111973815 -1.130796 -0.52112687 -0.16246715
0001d0 aa dc 47 3d ae f5 cf 3c eb 6c 94 3d 87 30 37 bf
       0.048794426 0.025385704 0.07247337 -0.7155842
0001e0 c4 8b 49 3c 8d 4c a7 38 9f f5 e5 3e c7 5e 33 bc
       0.012301389 7.977439e-05 0.44913957 -0.01094789
0001f0 de cb 88 bd 63 97 93 bc 85 7b 60 bc 46 42 f2 be
       -0.066795096 -0.018016523 -0.013701324 -0.47316188
000200 d9 50 85 bf f0 13 5d bf f4 2f 87 be 5a 9f 3d be
       -1.0415298 -0.8635855 -0.26403773 -0.18517819
000210 a1 49 7b bd b9 23 b9 bb 0c 8e 72 3d f2 64 91 3d
       -0.061349515 -0.0056500104 0.059217498 0.07099332
000220 c6 19 0a 3e 02 de 43 3f 79 7b 5f 3e 5a cd 12 3d
       0.13486394 0.7651063 0.21824445 0.03584037
000230 80 67 24 bc ae c1 94 bd bd c3 aa 3a 23 ed 55 3a
       -0.010034442 -0.07263504 0.0013028305 0.00081606413
000240 bf df 46 3d 3e 81 fe 3b ff 1e 3d bc c9 1e 26 3d
       0.048553225 0.0077668717 -0.011543035 0.040556703
000250 b0 80 12 3e dd 48 10 3d fb 99 7d 3c 3a f4 3d 3d
       0.14306903 0.035225738 0.015478606 0.04637549
000260 f9 e3 0b be 36 26 0e 3e 94 5c 27 bc c3 6e ee bb
       -0.13661183 0.13881764 -0.010214943 -0.0072763874
000270 bf 12 9b bd 1a f9 a1 3e 98 19 99 bd e5 9d 98 3a
       -0.07571935 0.31635362 -0.07475585 0.0011643736
000280 73 d9 25 bc 01 74 bf 3d 99 7a b6 bc c2 fb 35 bd
       -0.010122645 0.09348298 -0.022275256 -0.044429548
000290 2a 30 b9 3b 84 5f b6 be d8 6e 3a 3d 83 47 29 3c
       0.0056514936 -0.35619748 0.045515865 0.010331991
0002a0 35 c4 a8 3b b5 8a e1 3c 5a f4 04 3f 18 a2 32 bd
       0.005150343 0.027531961 0.5193535 -0.043611616
0002b0 6b f6 f6 bd d3 b6 66 3e ad 04 ff bc a4 19 7d bd
       -0.12058719 0.2253068 -0.03113016 -0.06179203
0002c0 aa 93 da 3d 29 74 e3 3c ce c3 92 ba 63 bc 9c bc
       0.10672696 0.02776535 -0.001119727 -0.019132799
0002d0 3e d9 2c 3d b7 56 c9 3b e2 1e a1 be be 56 90 bb
       0.042199366 0.0061443704 -0.31468874 -0.0044048717
0002e0 05 13 08 3c 1a d7 1d 3d 09 d9 eb be 04 c1 2e 3f
       0.008305316 0.038535215 -0.46064022 0.6826327
0002f0 a1 45 8f 3d 96 a5 b1 3a 43 34 83 bc 06 8d ea bb
       0.069957025 0.0013553377 -0.016016131 -0.0071579246
000300 07 f1 6e bb 0b f4 c9 3c 99 f6 7a bd ab 8b 59 3a
       -0.0036459581 0.024652502 -0.06127033 0.0008298705
000310 ac 8d fd 3b 08 04 e4 3d 06 77 bc 3b 6b 56 24 3c
       0.007737836 0.111335814 0.0057514934 0.010030369
000320 17 c3 64 bc b6 05 a5 3d 84 92 ec 3c 33 b4 0d bb
       -0.013962529 0.0805773 0.028878458 -0.00216223
000330 9d e2 c2 bb 46 a0 ba 3d 4f 4a b1 3d 0b 33 0f bb
       -0.0059474246 0.09112601 0.08656751 -0.0021850492
000340 19 42 4c 3e c3 39 c3 bc 26 0b 2f 3b 62 45 c2 bd
       0.19947089 -0.023831254 0.0026709526 -0.0948589
000350 57 81 f9 bc c8 33 96 ba c4 ed 82 bc a5 92 d0 bc
       -0.030457182 -0.0011459524 -0.015982516 -0.02546055
000360 6d 81 78 3c 77 56 5d 3d e9 c4 7c 3d 36 bc ae 3c
       0.015167576 0.054037537 0.061711226 0.02132998
000370 9b 1c 0f bd 43 96 7e 3d de 81 9c bc 88 80 9b be
       -0.03493939 0.06215502 -0.019104894 -0.303715
000380 75 03 a3 be 49 ba f5 3e 06 fc 36 3c 4a 35 c8 bb
       -0.31838575 0.47993687 0.0111684855 -0.006109868
000390 5d 2d a2 bf be b3 f4 3c c5 f1 1a bf 99 d7 1b 3f
       -1.2670094 0.029870864 -0.6052516 0.6087585
0003a0 8c 92 bd 3c d6 24 87 3c 9d d1 6f 3c 79 ce 34 3c
       0.023141168 0.016497057 0.014637378 0.011035555
0003b0 5b fc 89 3b 45 25 6b bc 7a 67 d6 39 59 08 30 3c
       0.0042109913 -0.0143521475 0.00040894357 0.010744178
0003c0 4b 81 36 bd 94 94 d6 37 fc 9c c8 bd 08 b6 11 bf
       -0.044556897 2.5579975e-05 -0.097955674 -0.5691838
0003d0 f3 86 81 bc 0a ff b9 3d 11 88 ff 3c 31 61 28 3d
       -0.01581142 0.09081848 0.031192811 0.041108314
0003e0 9f 5a 23 bd 17 c3 f7 3c b1 35 83 bc 7d 19 dd 3c
       -0.039881345 0.030244393 -0.016016813 0.026989693
0003f0 56 35 0e be 6d e8 9f be fe e7 93 3e 40 85 b1 3b
       -0.13887534 -0.31232014 0.28887933 0.005417496

fc3.bias f4 [2]
000000 f3 6c 5c be 58 69 6d be
       -0.21525936 -0.23184717
